training_model/gesture_model.tflite (tflite, 148480 bytes, 6 tensors)

sequential_5/dense_14/BiasAdd/ReadVariableOp f4 [4]
0	0xc0af89c8	-5.485569
1	0xbf2f0676	-0.68369234
2	0x3ff608e1	1.922146
3	0x408cb659	4.397259

sequential_5/dense_13/BiasAdd/ReadVariableOp f4 [15]
0	0xbd033398	-0.032031626
1	0xbded5327	-0.11588126
2	0xbc1da4e9	-0.009621837
3	0x3df11422	0.11771418
4	0xbf603c5e	-0.87592113
5	0xba86f592	-0.0010296574
6	0xbffbb069	-1.9663211
7	0xbf835d11	-1.0262777
8	0xbf61ca0a	-0.8819891
9	0xbca4104c	-0.020027302
10	0xbc314d31	-0.0108216265
11	0xbb224aa2	-0.0024763723
12	0xbc3218de	-0.010870187
13	0xba50ad04	-0.00079603516
14	0xbcc1f6d9	-0.023677276

sequential_5/dense_12/BiasAdd/ReadVariableOp f4 [50]
0	0xbb4e848c	-0.003151211
1	0x00000000	0.0
2	0xbb853b53	-0.00406591
3	0xbbc28764	-0.00593655
4	0x00000000	0.0
5	0x00000000	0.0
6	0x00000000	0.0
7	0xbb023844	-0.0019869963
8	0x00000000	0.0
9	0xbb46f63c	-0.003035917
10	0xbb8123a9	-0.0039410186
11	0x00000000	0.0
12	0x00000000	0.0
13	0x00000000	0.0
14	0x3a997935	0.0011709096
15	0x00000000	0.0
16	0xbb49bb01	-0.003078163
17	0xbb4e33d3	-0.0031463995
18	0xbb282835	-0.002565873
19	0xba60a828	-0.0008569979
20	0xb96913a0	-0.00022227922
21	0x00000000	0.0
22	0xbb4ec7b8	-0.0031552147
23	0x00000000	0.0
24	0x00000000	0.0
25	0x00000000	0.0
26	0x00000000	0.0
27	0xbbaa45ce	-0.0051963096
28	0x00000000	0.0
29	0x00000000	0.0
30	0x00000000	0.0
31	0x00000000	0.0
32	0xbb4f1735	-0.0031599526
33	0xbb4e2cce	-0.003145981
34	0xbb4f1514	-0.0031598257
35	0x00000000	0.0
36	0xbbe516e0	-0.0069912523
37	0xbb4b4799	-0.0031018017
38	0xbba65f8c	-0.005077308
39	0xbf2b6cdb	-0.66962975
40	0xbb23b68f	-0.002498064
41	0x00000000	0.0
42	0xbb07750a	-0.0020669126
43	0x00000000	0.0
44	0xbae41dd5	-0.001740391
45	0xbb4f30f4	-0.0031614872
46	0xbb8c152d	-0.0042749853
47	0xbbe12688	-0.0068710484
48	0xbaefffc8	-0.0018310482
49	0xbb517132	-0.0031958339

sequential_5/dense_12/MatMul f4 [50, 714]
0	0xbab2bcc0	-0.0013636574
1	0x3d631503	0.05543996
2	0xbcd1b03f	-0.025596736
3	0x3d50312a	0.050828137
4	0x3dadaad4	0.084798485
5	0xbcccf6a9	-0.02501996
6	0xbda650c8	-0.081208766
7	0x3d2f4b5f	0.04279649
8	0x3d25bd45	0.040463705
9	0x3d32aaf5	0.04362007
10	0x3bdd6b14	0.0067571495
11	0xbd3fe0c0	-0.046845198
12	0xbd8d43b4	-0.06897679
13	0xbcd00dee	-0.025397267
14	0xbda30fa4	-0.079619676
15	0xbd3e6513	-0.04648311
16	0x3d998ff3	0.07498159
17	0x3d8ccd75	0.06875125
18	0xbd2fd5ef	-0.042928632
19	0x3d1d2851	0.038368527
20	0x3d871897	0.06596487
21	0x3ca58ed0	0.0202097
22	0x3d69b06c	0.057053015
23	0x3d6fd071	0.058548395
24	0xbd2bcf73	-0.041945886
25	0xbdaa1414	-0.08304611
26	0xbdaf152c	-0.0854896
27	0x3d51585f	0.051109668
28	0x3d51d3df	0.051227447
29	0xbd6de1bb	-0.0580766
30	0x3ca889c7	0.02057351
31	0x3da7b376	0.08188526
32	0x3d9d57f3	0.076827906
33	0x3baeb7ec	0.005331984
34	0x3cb2f681	0.021846058
35	0xbda6735b	-0.08127471
36	0x3d03b659	0.032156322
37	0xbd52166a	-0.051290907
38	0xbda1d4d8	-0.07901925
39	0xbd22988e	-0.03969627
40	0x3c9704ae	0.018434849
41	0x3cc6542b	0.024210056
42	0xbcf21fb9	-0.029556142
43	0xbdb2be75	-0.08727733
44	0xbb88af8a	-0.0041713165
45	0xbd3dc978	-0.046334714
46	0x3d8c4008	0.068481505
47	0x3d27fbb4	0.041011527
48	0x3b61c1ad	0.0034447715
49	0xbda48f8e	-0.080351934
50	0x3ce64ef1	0.028113814
51	0xbc360bf4	-0.011111248
52	0x3c444e8f	0.01198162
53	0xbcfdb690	-0.030970842
54	0x3c8929bc	0.016743533
55	0xbd4880f7	-0.048951115
56	0x3d10af40	0.03532338
57	0x3d315781	0.04329634
58	0xbd8814d0	-0.06644595
59	0xbd18fb85	-0.037349243
60	0x3cd016a3	0.025401419
61	0xbd9c6dc0	-0.07638121
62	0x3c018fee	0.007907851
63	0x3d7ed0b0	0.06221074
64	0x3d82d1ad	0.06387649
65	0xbcaff680	-0.021479845
66	0xbbbc7910	-0.0057517365
67	0x3c486fdd	0.012233702
68	0xbc71d1dc	-0.014759507
69	0xbc189b13	-0.009314316
70	0xbb941dcc	-0.0045201536
71	0xbcd9176a	-0.026500423
72	0xbd408809	-0.047004733
73	0xbd85a32b	-0.065252624
74	0x3d6c95c7	0.057760026
75	0xbd8aa455	-0.06769625
76	0x3d1ac096	0.03778132
77	0x3d7470ee	0.05967801
78	0x3d3f56ce	0.046713643
79	0x3d921b2b	0.07134088
80	0x3da8b670	0.08237922
81	0xbd049168	-0.032365233
82	0xbd36a939	-0.044594977
83	0xbdb1ee8d	-0.08688078
84	0x3be1daa6	0.00689252
85	0xbc33b973	-0.0109695075
86	0xbbff21eb	-0.0077860258
87	0x3d3e78de	0.046501987
88	0xbd586053	-0.052826237
89	0x3c12cd1a	0.008960033
90	0xbda3e66f	-0.08002936
91	0xbd8ed8b5	-0.06974927
92	0x3cfacd60	0.030615509
93	0xbd2b4e93	-0.04182298
94	0x3d8420cc	0.06451568
95	0xbd009638	-0.03139326
96	0x3ca2e5e1	0.019885005
97	0xbd17cfe9	-0.037063513
98	0x3d7a963a	0.061178423
99	0x3ca6a6b0	0.020343155
100	0x3c2f4bc8	0.01069922
101	0xbcd849d0	-0.026402384
102	0xbb0e97a5	-0.0021757868
103	0xbd4055b6	-0.04695674
104	0xbdacbba6	-0.084342286
105	0xbdafd621	-0.08585764
106	0x3c8592b0	0.016305298
107	0xbdb73b69	-0.089468785
108	0xbd7d56fd	-0.061850537
109	0x39c0c168	0.00036765193
110	0x3d080e8f	0.03321701
111	0x3d699f25	0.057036538
112	0x3c8b8676	0.01703189
113	0x3d796a2d	0.060892273
114	0xbc0854f2	-0.008321034
115	0xbbb3a5ca	-0.00548241
116	0x3d3818f0	0.044945657
117	0xbca59020	-0.020210326
118	0xbd741ad2	-0.05959589
119	0xbd697a7a	-0.05700157
120	0xbd0819d0	-0.03322774
121	0xbbe4b36e	-0.0069793975
122	0xbd5bb7a8	-0.053641945
123	0x3d36d465	0.04463615
124	0x3c7e916b	0.0155376
125	0xbcd0776d	-0.025447572
126	0xbd5b5362	-0.053546317
127	0x3d347f4c	0.044066712
128	0xbb6841fc	-0.003543972
129	0x3d3ff60a	0.0468655
130	0x3d26ded6	0.040739857
131	0xbc824608	-0.015902534
132	0xbda73f82	-0.0816641
133	0xbc8baff9	-0.017051684
134	0x3d804d73	0.06264772
135	0xbcc6af4c	-0.02425351
136	0xbd199033	-0.037491035
137	0xbd826623	-0.06367137
138	0xbd2ace51	-0.041700665
139	0x3cdbd8db	0.026836803
140	0xbd922b66	-0.07137184
141	0xbd1e0080	-0.038574696
142	0xbc3066d2	-0.010766702
143	0xbd6a2367	-0.05716267
144	0x3d4a6f9c	0.049422845
145	0xbd78bde7	-0.06072798
146	0xbd8a11ea	-0.06741698
147	0x3d7c9037	0.06166097
148	0x3d8d9b22	0.06914355
149	0xbb9b4272	-0.0047381455
150	0x3d6781b6	0.056520186
151	0xbda6c077	-0.081421785
152	0xbcc76d5b	-0.024344137
153	0xbced7550	-0.028986603
154	0xbcfce9b0	-0.03087315
155	0xbb0bda06	-0.002133967
156	0xbd923be3	-0.07140329
157	0xbc99bed3	-0.01876775
158	0xbdad3fce	-0.084594354
159	0x3d97c43e	0.07410477
160	0x3d8a7938	0.06761402
161	0x3d123f17	0.0357047
162	0xbda0f5bf	-0.07859372
163	0x3d064bdf	0.0327872
164	0x3d955762	0.072920576
165	0x3daed75a	0.08537169
166	0x3ccbfb1f	0.024900017
167	0x3cc7c6a4	0.024386711
168	0xbcc49a78	-0.023999438
169	0x3d0f1426	0.034931324
170	0x3d80f6e6	0.06297092
171	0x3d4f5ee2	0.050627597
172	0xbb39dbd9	-0.00283598
173	0x3adfa15e	0.0017061641
174	0xbd5eb9b7	-0.05437633
175	0xbd77a076	-0.06045576
176	0xbdb16d3d	-0.08663414
177	0xbdba4fac	-0.090972275
178	0x3ce21457	0.02759759
179	0xbdacf3b9	-0.08444924
180	0x3dada209	0.084781714
181	0x3cdcc716	0.0269504
182	0xbc280efe	-0.010257481
183	0x3c0f2867	0.00873766
184	0x3cb5079e	0.022098359
185	0xbd76429d	-0.06012212
186	0x3d38a315	0.045077402
187	0xbd81710e	-0.063203916
188	0x3d7fc2ba	0.062441565
189	0xbda6d02d	-0.08145175
190	0x3d7a1bdc	0.061061725
191	0x3bb99db3	0.005664551
192	0xbdb4ddf7	-0.08831399
193	0x3d9b5fac	0.07586607
194	0xbbf5c8d6	-0.007500748
195	0x3d94dbde	0.07268499
196	0xbd7ace35	-0.06123181
197	0xbbf01536	-0.0073267473
198	0x3d98a4bd	0.07453296
199	0x3d1c35af	0.038137134
200	0xbd9b2fa3	-0.07577445
201	0xbd9fb942	-0.07799007
202	0xbcf70037	-0.03015147
203	0x3c72efb1	0.014827655
204	0xbda81fb9	-0.082091756
205	0xbdab749d	-0.083718516
206	0xbd9781a5	-0.073977746
207	0x3d8aa05c	0.067688674
208	0x3d696e62	0.056990035
209	0x3d8c5e98	0.0685398
210	0xbcb0783c	-0.021541707
211	0xbdb6f646	-0.08933692
212	0xbbf7439a	-0.0075459005
213	0x3a5bf990	0.0008391375
214	0xbc8ac7c4	-0.016940959
215	0x3daaffd6	0.08349578
216	0xbd39aea6	-0.045332573
217	0x3cb68a66	0.02228279
218	0x3bb40c24	0.0054946113
219	0x3d96a1a2	0.07355048
220	0xbda93210	-0.08261502
221	0xbda30cb9	-0.07961411
222	0x3c398350	0.011322811
223	0xbd2044e0	-0.039128184
224	0x3cd7a414	0.026323356
225	0xbd019be4	-0.03164281
226	0x3d672199	0.056428526
227	0x3bab6a8a	0.0052312063
228	0xbd883bf1	-0.06652058
229	0xbd82a091	-0.06378282
230	0x3da79074	0.08181849
231	0x3cffbb87	0.03121735
232	0xbc8f63fa	-0.017503727
233	0x3c91e5bd	0.017809743
234	0xbd8ce7d4	-0.06880155
235	0xbd0bfa88	-0.034174472
236	0x3dad389a	0.084580615
237	0xbdb2cd15	-0.087305225
238	0x3daebd4c	0.08532199
239	0x3cab2e23	0.020896023
240	0xb9ea0508	-0.00044635707
241	0x3b6c5af4	0.0036064954
242	0xbcdfcdb5	-0.027319768
243	0x3d55117e	0.052018635
244	0x3b861085	0.0040913248
245	0xbc12dd43	-0.008963886
246	0x3c1ae527	0.009454048
247	0xbd6d7497	-0.057972517
248	0xbbacbd9f	-0.005271628
249	0x3d0ee1e0	0.03488338
250	0x3c44e177	0.012016646
251	0xbd506839	-0.050880644
252	0xbd1c74c4	-0.038197294
253	0x3d4b1fb3	0.049590778
254	0xbdb8a256	-0.09015338
255	0xbd1188b1	-0.03553075

sequential_5/dense_13/MatMul f4 [15, 50]
0	0x3ac0da96	0.0014713581
1	0xbe457a2e	-0.19284889
2	0xbe010633	-0.12600021
3	0x3e8a60ce	0.2702698
4	0x3e0385a0	0.12843943
5	0x3c4d5560	0.012532562
6	0xbce35170	-0.027748793
7	0x3e504742	0.20339683
8	0xbc163540	-0.009167969
9	0x3e8e1510	0.27750444
10	0xbe75fc11	-0.24021937
11	0x3e230ec2	0.15923598
12	0x3e3bf5f2	0.1835554
13	0x3ddaa1dc	0.106754035
14	0x3dcaefac	0.09908995
15	0x3e8cfd94	0.27537215
16	0x3e662852	0.22476318
17	0xbe3e6fce	-0.18597338
18	0x3d39ef68	0.04539433
19	0x3db2baae	0.087270126
20	0x3cb269bd	0.021778936
21	0xbe061202	-0.13092807
22	0xbd8f83a0	-0.07007527
23	0x3e72f0fc	0.2372474
24	0xbe05f41f	-0.13081406
25	0x3d57fb78	0.052730054
26	0x3dd023c8	0.10163075
27	0xbdaa764b	-0.08323344
28	0x3e69d1f4	0.22833997
29	0x3e91e08e	0.28491634
30	0xbe97765d	-0.29582492
31	0x3e80a724	0.25127518
32	0x3e1e48e9	0.154575
33	0xbafa3bbc	-0.0019091289
34	0xbe91bd8b	-0.28464922
35	0xbe54b26e	-0.2077119
36	0x3d59c092	0.053162165
37	0x3e136154	0.14392596
38	0x3e8afe39	0.27147081
39	0xbe6cc08c	-0.23120326
40	0x3e17afb5	0.1481312
41	0x3db68ae0	0.08913207
42	0xbcade030	-0.021225065
43	0xbe16ff00	-0.14745712
44	0x3e5edcdd	0.2176394
45	0xbe922b99	-0.28548887
46	0x3e3d39a7	0.18479024
47	0x3e3d3e50	0.18480802
48	0xbd5c6d44	-0.05381514
49	0x3e1a933c	0.15095228
50	0xbe44cd5a	-0.1921896
51	0x3e3b16a4	0.18270355
52	0xbe799aa6	-0.243754
53	0xbe2b9696	-0.16756663
54	0xbe0f9b99	-0.140242
55	0xbde9f704	-0.114240676
56	0xbe799a22	-0.24375203
57	0x3e835168	0.25648046
58	0x3d964778	0.0733785
59	0x3da4b421	0.08042169
60	0x3e947311	0.2899404
61	0x3e2e0cbe	0.16997048
62	0x3d201f68	0.03909245
63	0x3d93488c	0.071915716
64	0x3dea6ffd	0.11447141
65	0x3e29a674	0.16567403
66	0xbe565825	-0.20932062
67	0x3d633018	0.055465788
68	0xbe722c59	-0.2364973
69	0x3e1be9f9	0.15225972
70	0x3e990ec5	0.2989408
71	0xbe211605	-0.15731056
72	0xbd59b419	-0.05315027
73	0x3d534488	0.05157903
74	0xbd4bebd0	-0.049785435
75	0xbdcb32a0	-0.09921765
76	0x3da30624	0.079601556
77	0xbd6f4e6c	-0.0584244
78	0xbda73668	-0.08164674
79	0xbe67d939	-0.22641458
80	0xbde664ee	-0.112497196
81	0x3c870160	0.016480148
82	0xbe3698b6	-0.17831692
83	0x3deec2a7	0.11658221
84	0xbd56e00a	-0.052459754
85	0xbdeeb722	-0.116560236
86	0xbd0ce0c5	-0.034394044
87	0xbdaa084d	-0.083023645
88	0x3e41cd40	0.18925953
89	0x3c002f07	0.007823712
90	0xbd9e50d9	-0.07730264
91	0xbccf1130	-0.02527675
92	0xbcf3848a	-0.029726285
93	0x3e321eda	0.17394581
94	0xbd9348f0	-0.07191646
95	0x3e49c66b	0.19704597
96	0xbe0b3ccc	-0.13597411
97	0x3e934811	0.2876592
98	0x3e8284a1	0.25491813
99	0xbe59e769	-0.21279682
100	0xbe936fc6	-0.28796214
101	0xbe5d7891	-0.21628024
102	0xbdbadc2a	-0.09124024
103	0x3e99ae0e	0.30015606
104	0xbd8798f8	-0.06620973
105	0xbd706a54	-0.058695152
106	0xbdd1d0bc	-0.10244891
107	0xbe64637a	-0.22303572
108	0xbe1c4de7	-0.15264092
109	0xbe88ef57	-0.26745102
110	0xbdb4146e	-0.08792959
111	0xbd4aa5f0	-0.049474657
112	0x3db2fe24	0.0873988
113	0xbe06c138	-0.13159645
114	0x3e949421	0.29019263
115	0x3de10868	0.109879315
116	0x3dfb66ed	0.12275491
117	0xbe1c54e0	-0.15266752
118	0x3d497c6b	0.04919092
119	0xbdd3a3ef	-0.10334002
120	0xbe39b24b	-0.1813442
121	0x3ccaad30	0.024740785
122	0xbe933357	-0.28750107
123	0xbdc1f082	-0.09469701
124	0x3df2e280	0.11859608
125	0x3e94e87a	0.29083616
126	0xbe44cb86	-0.19218263
127	0xbd8ef79f	-0.06980824
128	0x3e2c82ae	0.16846725
129	0x3e4ff2cc	0.20307463
130	0xbd184c00	-0.037181854
131	0x3e21e3ba	0.15809527
132	0x3e5fb7b1	0.21847416
133	0x3c6ad0e2	0.014332028
134	0x3c8b050e	0.016970184
135	0x3da40b78	0.0801
136	0x3ddd6a3f	0.108112805
137	0xbe419bb7	-0.18907057
138	0xbe157e0d	-0.14598866
139	0x3e14c74b	0.14529149
140	0x3e99513e	0.29944795
141	0xbe1b3773	-0.15157871
142	0x3e1f7edc	0.15575737
143	0xbe8411fe	-0.25794977
144	0xbe84599d	-0.2584962
145	0x3e8e3bfc	0.2778014
146	0x3d121c07	0.03567126
147	0x3e597075	0.21234305
148	0xbe8ab1fd	-0.2708892
149	0xbc90909d	-0.017647082
150	0x3e0664fe	0.13124463
151	0x3e5021ac	0.20325345
152	0x3dc5e084	0.096619636
153	0xbc29ffc0	-0.010375917
154	0x3d746f00	0.05967617
155	0x3e65e860	0.22451925
156	0x3d4004b0	0.04687947
157	0xbe6c71cc	-0.23090285
158	0xbe4bec64	-0.19914395
159	0x3e8e7ba8	0.27828717
160	0xbcf13be0	-0.029447496
161	0xbd5cb3d8	-0.05388245
162	0x3e8b44dc	0.27200973
163	0x3e3045b4	0.1721409
164	0x3ccb0e56	0.02478711
165	0xbba46e00	-0.005017996
166	0x3ca94050	0.02066055
167	0xbe5bbd3c	-0.21458906
168	0xbdccb2db	-0.099950515
169	0x3b89ba80	0.0042031407
170	0xbcf948e0	-0.030430257
171	0x3e537708	0.20650876
172	0x3e0b86d0	0.13625646
173	0x3d252788	0.040320903
174	0x3d9ea7ec	0.07746872
175	0xbce8f970	-0.028439254
176	0x3b788f00	0.0037927032
177	0xbe943542	-0.28946882
178	0xbd4b9850	-0.049705803
179	0x3de35de0	0.111018896
180	0xbe23dabd	-0.16001411
181	0x3e926552	0.28592926
182	0x3dd9e4d0	0.10639346
183	0x3cbd86b0	0.023135513
184	0xbc8a2000	-0.016860962
185	0x3e133b2a	0.14378038
186	0xbcf2d4a5	-0.029642412
187	0xbd3789e0	-0.044809222
188	0x3e409823	0.18808036
189	0xbc22ead7	-0.0099436855
190	0xbe8b56ff	-0.2721481
191	0xbe9b0e15	-0.3028418
192	0x3cd71d10	0.026258975
193	0x3db436d0	0.08799517
194	0xbe23ba7a	-0.15989104
195	0xbd9cea24	-0.07661846
196	0x3d37ab0f	0.04484087
197	0x3e8249f2	0.2544704
198	0x3ca24c90	0.019811898
199	0x3dee7cb8	0.11644882
200	0xbe5f236a	-0.21790853
201	0xbe2e2087	-0.17004596
202	0xbd9eea46	-0.07759528
203	0xbe3f998b	-0.18710916
204	0x3e84c66c	0.25932634
205	0x3e0c6ae2	0.13712648
206	0x3e635410	0.22200036
207	0xbda4e58f	-0.08051597
208	0xbe3229fa	-0.17398825
209	0xbe3923c4	-0.1808005
210	0xbe871054	-0.26379645
211	0x3e56f42c	0.20991582
212	0x3d577b40	0.052607775
213	0x3e737408	0.23774731
214	0xbdc598be	-0.09648274
215	0x3d9a5270	0.07535255
216	0xbe1090cd	-0.14117737
217	0x3e6654f8	0.2249335
218	0x3d675d7e	0.056485645
219	0x3e894f48	0.268183
220	0xbd96dc80	-0.07366276
221	0xbe7c64b3	-0.24647789
222	0xbde067b0	-0.10957277
223	0xbd6d0490	-0.05786568
224	0x3e5f018c	0.21777934
225	0xbddf039c	-0.1088936
226	0x3de1bec0	0.11022711
227	0xbde0806a	-0.10961993
228	0xbe24c3f6	-0.16090378
229	0xbdbe2db2	-0.092860594
230	0xbe90e172	-0.28297
231	0xbcbeed50	-0.023306519
232	0x3b611700	0.0034345984
233	0x3e41447c	0.18873781
234	0x3d4b0328	0.049563557
235	0xbe844d44	-0.258402
236	0xbd50b749	-0.050956044
237	0x3e6df5a0	0.2323823
238	0xbd628079	-0.055298302
239	0x3d6ea3a1	0.058261517
240	0xbd11e7c8	-0.035621434
241	0xbe76767c	-0.24068636
242	0xbe7ffe3b	-0.24999325
243	0xbdea24ee	-0.11432825
244	0xbdb35173	-0.087557696
245	0x3d56e000	0.052459717
246	0x3d5aab2f	0.05338591
247	0x3e77a5f8	0.24184406
248	0xbe64f2fc	-0.22358316
249	0xbe711b20	-0.23545504
250	0xbd96f4fe	-0.07370947
251	0x3d164780	0.03668928
252	0xbe4023c2	-0.1876364
253	0xbe3af1da	-0.18256322
254	0x3e872b9c	0.2640046
255	0xbe95a4da	-0.29227334

sequential_5/dense_14/MatMul f4 [4, 15]
0	0xbea15e0e	-0.3151707
1	0x3e959ccd	0.29221192
2	0xc0127a76	-2.2887244
3	0xc12f2cf9	-10.94848
4	0x3fa87c18	1.316287
5	0x3ef5fe44	0.48045552
6	0x41124c63	9.143649
7	0x3e65ca72	0.22440508
8	0x3fd63507	1.6734933
9	0x3ee1b4d2	0.44083267
10	0xbecbc20e	-0.3979649
11	0x3f0c2da6	0.54757154
12	0x3e9afe61	0.302722
13	0xbec78fc5	-0.38976875
14	0xbdd641bc	-0.104617566
15	0xbdc8abc6	-0.09798388
16	0x3d47d45e	0.048786514
17	0x3e56b642	0.20967963
18	0xc132aa15	-11.166524
19	0xbf9fb8e6	-1.2478302
20	0x3e78c5cc	0.24294204
21	0xc11727b8	-9.447197
22	0xc0dc6007	-6.886722
23	0xc0209533	-2.5091064
24	0xbd0606b0	-0.03272122
25	0xbd74716e	-0.059678487
26	0x3e769369	0.2407967
27	0xbcbfbe7e	-0.023406263
28	0xbec96ad7	-0.39339325
29	0xbef2650b	-0.47342715
30	0x3dada150	0.084780335
31	0xc012f3c0	-2.2961273
32	0xbfe7d314	-1.8111291
33	0xbfc47b3d	-1.5350109
34	0xc0db3caf	-6.8511577
35	0xbeb17b36	-0.34664315
36	0xbf0fb9a7	-0.5614266
37	0xc1ba4b26	-23.286694
38	0x3e6365f6	0.22206864
39	0xbe0d1139	-0.13776101
40	0x3dbdb315	0.09262673
41	0x3e9a91d0	0.3018937
42	0xbea1f1ff	-0.3162994
43	0xbf0b8230	-0.54495525
44	0xc012c1e8	-2.293085
45	0xbe606be3	-0.21916156
46	0xc053dd4d	-3.3103821
47	0xc1aa79a8	-21.309402
48	0x40d95cf3	6.7925963
49	0xc00f1d0d	-2.236148
50	0xbee9a42d	-0.4563307
51	0xbf08f74e	-0.53502357
52	0xbfda4809	-1.7053233
53	0xbdb6b4db	-0.08921214
54	0xbeef05b5	-0.46684042
55	0xbddcbfdc	-0.10778782
56	0xbe41e1d3	-0.18933801
57	0xbf070e65	-0.5275634
58	0x3ef3ed33	0.47641906
59	0xc0a2497a	-5.0714693
