training_model/gesture_model.tflite (tflite, 244440 bytes, 6 tensors)

sequential_1/dense_5/BiasAdd/ReadVariableOp f4 [4]
0	0xbf76a017	-0.9633803
1	0x3f336f3a	0.70091593
2	0x3fa1e6d4	1.2648568
3	0x3ef2190a	0.47284728

sequential_1/dense_4/BiasAdd/ReadVariableOp f4 [15]
0	0xbd1e8cc1	-0.038708452
1	0x3f0c21fd	0.5473936
2	0x3fa832e1	1.3140527
3	0xbacf1195	-0.0015798087
4	0xbd09a599	-0.03360519
5	0x3e62731c	0.22114223
6	0xbdfe5b10	-0.124197125
7	0xbb4a59c2	-0.0030876254
8	0xbb0b7310	-0.00212783
9	0xbfa62668	-1.2980471
10	0x3b6d1920	0.0036178306
11	0xbcb9195a	-0.022595096
12	0xbddbc052	-0.107300416
13	0xbf5eed76	-0.87081087
14	0xbf9ea1f0	-1.2393169

sequential_1/dense_3/BiasAdd/ReadVariableOp f4 [50]
0	0x00000000	0.0
1	0xbb23bad2	-0.002498318
2	0x3d4a45fb	0.049383145
3	0x00000000	0.0
4	0xbaffde9a	-0.0019521296
5	0x00000000	0.0
6	0x00000000	0.0
7	0xbaa86b0e	-0.0012849288
8	0xbb4eb685	-0.0031541896
9	0x00000000	0.0
10	0x39c31740	0.0003721062
11	0x00000000	0.0
12	0xbb624cae	-0.0034530568
13	0xbb4f0ad9	-0.003159216
14	0x00000000	0.0
15	0x00000000	0.0
16	0xba3182a0	-0.0006771479
17	0x00000000	0.0
18	0xba92d3b6	-0.0011202011
19	0xbaa546ab	-0.0012609562
20	0xbb4ea388	-0.0031530578
21	0xbb4f177a	-0.0031599686
22	0xbad99dc3	-0.0016602803
23	0xbac5fab9	-0.0015104628
24	0x00000000	0.0
25	0xba5cbdde	-0.00084206264
26	0xbb3fbb3a	-0.0029255883
27	0xbb7db0a3	-0.003871002
28	0xbb4e66d6	-0.00314944
29	0xbb4d3c01	-0.0031316283
30	0x00000000	0.0
31	0xbb4e4dd4	-0.0031479495
32	0xbae69842	-0.0017592984
33	0x3d44167a	0.047872998
34	0xbaf77b7c	-0.0018881406
35	0xbb498b70	-0.0030753277
36	0xbb4ca562	-0.0031226506
37	0x00000000	0.0
38	0xbb6a4848	-0.003574865
39	0xbb4e1476	-0.00314453
40	0xbb4f1553	-0.0031598404
41	0xb7c12800	-2.302602e-05
42	0xbb193e4b	-0.0023383077
43	0xbb45cc09	-0.003018143
44	0xba524504	-0.00080211484
45	0xbb9d7dba	-0.0048062475
46	0xbb4ed8a2	-0.0031562229
47	0x00000000	0.0
48	0xbb40db68	-0.0029427651
49	0x00000000	0.0

sequential_1/dense_3/MatMul f4 [50, 1194]
0	0x3d4f6e84	0.050642505
1	0xbd3f2178	-0.046662778
2	0xba724c80	-0.0009242967
3	0x3ca85e14	0.020552672
4	0x3d2066cc	0.039160535
5	0x3d7db64a	0.061941423
6	0x3d3290da	0.043595172
7	0x3c6501c8	0.013977475
8	0xbd8b147f	-0.06791019
9	0x3cfaad4c	0.030600213
10	0xbd88c0ce	-0.066773996
11	0xbcf91f2e	-0.030410375
12	0x3c7933f8	0.015210144
13	0x3d691632	0.056905933
14	0x3d8b7899	0.068101116
15	0x3d7ad682	0.061239727
16	0xbd386bb8	-0.045024604
17	0x3d47ed80	0.048810482
18	0xbd148887	-0.036263015
19	0x3c2eb8b8	0.010664158
20	0x3ce03e78	0.027373537
21	0xbae18480	-0.0017205626
22	0x3b876f90	0.0041331723
23	0x3c5d7370	0.013516292
24	0xbd6754fa	-0.056477524
25	0xbbafe020	-0.005367294
26	0xbc568ab4	-0.013094593
27	0xbd4498b4	-0.04799719
28	0x3bde2750	0.0067795888
29	0xbd815c2d	-0.06316409
30	0xbd133c75	-0.03594633
31	0xbc7199ac	-0.014746111
32	0x3d303072	0.04301495
33	0x3d182120	0.037140965
34	0xbd731fe3	-0.05935658
35	0x3cd1bc60	0.02560252
36	0xbcd007ec	-0.025394402
37	0xbbb03d80	-0.005378425
38	0x3d7f9e92	0.062407084
39	0x3d69eeaa	0.057112373
40	0xbd8cd496	-0.06876485
41	0x3d8787e3	0.06617715
42	0x3d7ba2b6	0.06143447
43	0x3d8b939b	0.06815263
44	0xbbedddc8	-0.0072591044
45	0xbb4e4240	-0.0031472594
46	0xbd543d7a	-0.05181644
47	0x3bb92650	0.005650319
48	0xbb86bc60	-0.0041118115
49	0x3d862dc7	0.065517
50	0xbc2a0a80	-0.01037848
51	0x3d09b5a0	0.033620477
52	0x3cfb15f4	0.030650117
53	0x3d783342	0.06059576
54	0x3d126fb0	0.035751045
55	0xbccadf40	-0.024764657
56	0x3d1185aa	0.035527863
57	0xbd54d784	-0.051963344
58	0x3d4ee946	0.050515436
59	0xbcb4cf86	-0.022071611
60	0xbd3af13a	-0.045640208
61	0x3cc67f50	0.02423063
62	0xbcc5e89c	-0.024158768
63	0xbc41dda8	-0.011832632
64	0xbd550ad6	-0.052012287
65	0x3d828305	0.06372646
66	0xbd379e2f	-0.04482859
67	0xbc74d0d8	-0.01494237
68	0x3c6d9ca0	0.014502674
69	0x3cce2a40	0.02516663
70	0xbcbb0742	-0.02283061
71	0xbd49caca	-0.04926566
72	0x3cb38cf0	0.02191779
73	0x3d3bdbe0	0.045863986
74	0x3d6a0e12	0.057142325
75	0x3c9b5740	0.018962502
76	0xbc86c410	-0.016450912
77	0xbbdc2c50	-0.0067191496
78	0x3b1eaf20	0.002421327
79	0xbbe42d30	-0.0069633946
80	0x3d1c119c	0.03810273
81	0x3bd265f0	0.0064208433
82	0x3cf99b1c	0.03046947
83	0xbd2d8a8e	-0.042368464
84	0x3d2746e4	0.04083909
85	0xbd79e641	-0.061010603
86	0xbd173b5b	-0.03692184
87	0xbd0275f7	-0.03185078
88	0xbc88912c	-0.016670786
89	0x3d3f162e	0.04665201
90	0x3d45839a	0.04822121
91	0xbaf18f80	-0.0018429607
92	0x3a489f00	0.00076530874
93	0xbd260ebd	-0.0405414
94	0xbd11768a	-0.03551344
95	0x3d397cd4	0.04528506
96	0xbd822bd8	-0.06356019
97	0x3cf27c98	0.029600427
98	0x3c434040	0.011917174
99	0xbd47be16	-0.048765264
100	0xbcd8cea2	-0.026465718
101	0x3d3a2e82	0.04545451
102	0xbb434fa0	-0.00298021
103	0xbd37dee4	-0.0448903
104	0x3b7b5200	0.0038348436
105	0x3d1d6aa6	0.038431786
106	0x3d85ce03	0.06533434
107	0x3d745212	0.05964858
108	0x3c81aaa4	0.015828438
109	0x3c1e62f8	0.009667151
110	0xbd84344b	-0.064552866
111	0x3b9756a0	0.004618481
112	0xbd2254aa	-0.039631523
113	0xbab37b80	-0.0013693422
114	0xbd8c4add	-0.068502165
115	0xbd1db768	-0.038504988
116	0x3d76f5d6	0.06029304
117	0xbcb4f08c	-0.022087358
118	0xbcb6a378	-0.022294745
119	0x3d7a35da	0.061086513
120	0xbd319878	-0.043358296
121	0xbd0a9145	-0.033829946
122	0xbd47fdfb	-0.0488262
123	0xbc19807c	-0.009369012
124	0x3c18f920	0.00933674
125	0xbd3c112a	-0.045914806
126	0xbccf7c06	-0.025327694
127	0xbd636663	-0.055517565
128	0x3d65c506	0.0560961
129	0x3c9fbc14	0.019498862
130	0x3c835c7c	0.01603531
131	0xbce0ab16	-0.02742533
132	0xbd7568a2	-0.05991424
133	0xbb716f40	-0.0036839992
134	0xbd8565e8	-0.06513578
135	0xbd83cc74	-0.06435481
136	0xbd17b8c7	-0.03704145
137	0xbc9633ea	-0.018335301
138	0xbc559724	-0.013036523
139	0xbc9c9aea	-0.019116838
140	0xbd8d7cb5	-0.069085516
141	0xbd715712	-0.058920927
142	0x3cebcebc	0.028785102
143	0xbc8daa5c	-0.017293148
144	0xbc565334	-0.013081361
145	0xbd622e48	-0.05521992
146	0xbd1853f2	-0.03718943
147	0xbc9551d4	-0.018227495
148	0x3d6e9bf6	0.058254205
149	0xbd31b268	-0.043383032
150	0xbd081c07	-0.033229854
151	0x3c9bac40	0.019003034
152	0x3d0a822e	0.033815555
153	0xbd399218	-0.04530534
154	0x3ce3fbb0	0.027829975
155	0x3d29125a	0.041277267
156	0xbccac1ce	-0.024750616
157	0x3d6bda9e	0.057581536
158	0x3d6a82a6	0.057253502
159	0xbc9d2f9a	-0.019187737
160	0x3a792600	0.00095042586
161	0x3b242060	0.002504371
162	0xbcb38e1e	-0.021918353
163	0xbd8007a8	-0.0625146
164	0x3c7c1d98	0.015387915
165	0xbb3ff720	-0.0029291585
166	0x3cee6f8c	0.029105924
167	0x3d7f4412	0.062320776
168	0xbd35bc12	-0.04436881
169	0x3c59b680	0.01328814
170	0x3d80f997	0.062976055
171	0x3c820464	0.015871234
172	0xbd1953eb	-0.037433546
173	0x3ce2b6c4	0.02767504
174	0xbc5146e8	-0.012773253
175	0xbb566840	-0.0032715946
176	0x3d84b325	0.064794816
177	0x3d574092	0.052551813
178	0xbcbbe800	-0.022937775
179	0xbb265ae0	-0.0025383756
180	0xbc0d43a4	-0.008622084
181	0xbd2106bd	-0.039313067
182	0x3cece1b8	0.028916225
183	0x3d1c8d12	0.038220473
184	0xbd8b15ed	-0.067912914
185	0x3c59f030	0.013301894
186	0x3c21afe8	0.0098685995
187	0x3d245bda	0.04012666
188	0xbce63a34	-0.028103925
189	0xbb0c4f40	-0.0021409541
190	0xbcc4d39e	-0.024026688
191	0x3bdd2a60	0.0067494363
192	0x3d59800e	0.053100638
193	0x3bd98a80	0.006638825
194	0x3d0912f8	0.033465356
195	0x3c9e95ec	0.019358598
196	0xbc16d6a4	-0.009206448
197	0xbb991c90	-0.0046725944
198	0x3cf7199c	0.030163579
199	0x3cb36d54	0.021902718
200	0xbb9d0e80	-0.0047929883
201	0xbca2b9b6	-0.019863945
202	0x3d42e15a	0.047578193
203	0x3d22ad9c	0.039716348
204	0x3d2f43fe	0.04278945
205	0x3c83a2d4	0.016068853
206	0x3d05eb0a	0.032694854
207	0xbca284f8	-0.019838795
208	0x3d4bf240	0.049791574
209	0xbd2dfbc2	-0.042476423
210	0x3abdb180	0.0014472455
211	0x3d8da475	0.06916133
212	0xbd8449a6	-0.0645936
213	0x3cbc32dc	0.02297347
214	0xbcd857b4	-0.026409008
215	0xbcc64628	-0.024203375
216	0x3d809731	0.062788375
217	0xbca09a24	-0.01960475
218	0xbd044a80	-0.03229761
219	0xbd154300	-0.03644085
220	0x3bebc8b0	0.0071955547
221	0x3ccadad0	0.024762541
222	0x3cc07b04	0.023496158
223	0xbd212b3c	-0.039347872
224	0xbcd81bce	-0.026380446
225	0x3d26eace	0.04075127
226	0x3d825d31	0.06365431
227	0xbc26f88c	-0.010191094
228	0xbce4ff2e	-0.02795371
229	0xbd3b6012	-0.045745917
230	0xbd8a1c58	-0.067436874
231	0x3d80b8ad	0.06285224
232	0x3ceb4540	0.028719544
233	0x3c146fc0	0.009059846
234	0xba900640	-0.0010988191
235	0x3d620154	0.055177048
236	0xbd3813e6	-0.04494085
237	0x3d192856	0.037391983
238	0x3d4fe392	0.050754137
239	0x3c849c88	0.016187921
240	0x3d860925	0.06544713
241	0x3d79c5fa	0.06097982
242	0xbbb0da50	-0.0053971186
243	0x3d224574	0.039617017
244	0x3c7e1f18	0.015510343
245	0xbd7e5fba	-0.06210301
246	0xbd8e3ab3	-0.0694479
247	0x3d3d87c0	0.04627204
248	0xbd866941	-0.06563044
249	0x3d11a1b8	0.035554618
250	0x3d4558bc	0.048180327
251	0x3cd3b158	0.0258414
252	0xbb503d40	-0.003177479
253	0xbd8acae8	-0.067769825
254	0xbd3bb368	-0.045825392
255	0xbd85dac7	-0.06535869

sequential_1/dense_4/MatMul f4 [15, 50]
0	0x3e83533e	0.25649446
1	0x3dbe5674	0.092938334
2	0x3a6939ac	0.00088968384
3	0xbd83b624	-0.06431225
4	0x3c88809a	0.016662885
5	0x3d759fa8	0.059966713
6	0x3d68fe70	0.056883276
7	0x3e0b48c9	0.13601984
8	0xbe5c799a	-0.21530762
9	0xbe417d04	-0.18895346
10	0x3e422f42	0.1896334
11	0x3e0f9016	0.14019808
12	0xbe22e876	-0.1590899
13	0xbe68a4f0	-0.22719169
14	0x3e20301a	0.1564335
15	0x3d242d80	0.040082455
16	0x3e02f551	0.12788893
17	0xbe41ace4	-0.18913609
18	0x3d8210d0	0.06350863
19	0xbe992a02	-0.29914862
20	0x3ddd6a10	0.108112454
21	0x3e788bd8	0.24272096
22	0xbe33e585	-0.17568024
23	0xbdc87a90	-0.09789002
24	0xbe18e57f	-0.14931296
25	0x3e8055d4	0.25065482
26	0x3d93be48	0.07214028
27	0xbe83c3e0	-0.25735378
28	0x3e7d911c	0.24762386
29	0xbddc479a	-0.107558444
30	0xbe2c4e41	-0.16826726
31	0x3e287870	0.16452193
32	0xbd17e280	-0.03708124
33	0xbe215c46	-0.15757856
34	0x3e9328c8	0.2874205
35	0xbe732058	-0.23742807
36	0x3e680da0	0.22661448
37	0x3db21954	0.08696237
38	0x3e5e488a	0.21707359
39	0xbe5ee583	-0.2176724
40	0x3e15412a	0.1457564
41	0x3e87d443	0.2652913
42	0xbc826ad0	-0.015920073
43	0xbe61d85c	-0.22055191
44	0x3dfdd35c	0.12393829
45	0xbe4bd7ad	-0.19906493
46	0xbe5863bc	-0.21131796
47	0x3ae04e00	0.001711309
48	0xbe14ddad	-0.14537688
49	0x3e60cbb8	0.21952713
50	0x3e20523e	0.15656373
51	0x3e7351c4	0.2376166
52	0x3f81f878	1.0153952
53	0xbdceb63e	-0.10093354
54	0x3de442a2	0.11145522
55	0xbda50456	-0.08057468
56	0x3e8307de	0.2559194
57	0x3e37ac2e	0.17936775
58	0xbd497597	-0.049184408
59	0xbdf1b652	-0.11802353
60	0xbe438bcb	-0.19096296
61	0xbe2c0aeb	-0.1680104
62	0x3e464318	0.19361532
63	0xbe475896	-0.19467387
64	0x3db8caa8	0.090230286
65	0x3e2b3fc2	0.1672354
66	0xbccbcdaa	-0.024878342
67	0x3e56dd54	0.20982867
68	0x3e382d7d	0.17986102
69	0x3e51ed7a	0.20500746
70	0xbbbe24d6	-0.005802731
71	0xbda34113	-0.07971396
72	0xbe1249e1	-0.14285995
73	0xbd1f9f62	-0.03897036
74	0xbe5f2402	-0.2179108
75	0x3e97d8d4	0.29657614
76	0xbe2e93b6	-0.17048535
77	0x3da12f91	0.07870401
78	0xbe5903fb	-0.21192925
79	0xbd52da18	-0.05147752
80	0x3d9240cc	0.07141265
81	0x3ddce875	0.10786525
82	0x3e8122db	0.25221905
83	0x3ebffee3	0.3749915
84	0x3e4d115a	0.2002615
85	0x3de894ba	0.11356492
86	0xbde55f67	-0.11199837
87	0xbdf93874	-0.12168971
88	0x3e2b77b4	0.16744882
89	0x3e99d51f	0.3004541
90	0xbe81013e	-0.2519626
91	0xbcd4a09d	-0.025955493
92	0x3e873d02	0.26413733
93	0xbdf2ed33	-0.118616484
94	0x3e80e51c	0.25174797
95	0x3e54142a	0.20710817
96	0x3e6cdaab	0.2313029
97	0x3e5ab77c	0.21359056
98	0x3e861044	0.26184285
99	0x3dd192ac	0.102330536
100	0x3df4bbf8	0.11949915
101	0xbe6b03bc	-0.22950643
102	0x40006e21	2.0067217
103	0xbd923020	-0.07138085
104	0x3e5f27d0	0.21792531
105	0x3e2da4f8	0.16957462
106	0xbe81c1df	-0.25343224
107	0x3d9849f2	0.07435979
108	0x3d23cd72	0.03999085
109	0xbe5c23c1	-0.21498014
110	0x3d97d185	0.074130096
111	0xbe60ba72	-0.21946123
112	0xbe038cfe	-0.12846753
113	0xbdb53f1d	-0.088499285
114	0x3d8eda50	0.069752336
115	0xbe860dfc	-0.26182544
116	0xbd7ce8c5	-0.061745424
117	0x3e92465c	0.28569305
118	0x3e652bcc	0.22379988
119	0xbd9a1c14	-0.07524887
120	0x3db76d11	0.0895635
121	0xbe87917f	-0.26478192
122	0xbe7f8d67	-0.24956284
123	0x3e91d64d	0.2848381
124	0x3c5f8aa0	0.013643891
125	0x3ab1172e	0.0013510936
126	0xbe5be3b2	-0.21473578
127	0x3e56d41e	0.20979354
128	0x3e3bd775	0.18343909
129	0x3e7e69de	0.24845073
130	0xbe291835	-0.1651314
131	0xbd137217	-0.035997476
132	0x3e925e48	0.28587556
133	0xbdf997df	-0.1218717
134	0xbe4ba5d7	-0.19887482
135	0xbd65a095	-0.056061346
136	0xbe1c2ea4	-0.15252167
137	0xbe058f76	-0.13043007
138	0xbda3c955	-0.079973854
139	0xbde3d050	-0.11123717
140	0x3e5eb560	0.21748877
141	0xbe2f717f	-0.17133139
142	0x3de7c313	0.11316504
143	0xbe12b3f4	-0.14326459
144	0xbcb61386	-0.022226106
145	0x3e26e12c	0.16296834
146	0x3e00cbb2	0.12577704
147	0x3e978b40	0.29598427
148	0xbe8a0046	-0.26953334
149	0xbe012d2e	-0.12614891
150	0xbe808e79	-0.25108698
151	0xbe318529	-0.17335953
152	0xbe025c5f	-0.1273055
153	0xbd450088	-0.04809621
154	0xbe473f41	-0.19457723
155	0x3e11004e	0.14160272
156	0x3d285110	0.041092932
157	0x3e0eeffe	0.13958737
158	0xbe91676e	-0.28399223
159	0xbd584d48	-0.052808076
160	0x3e72efa5	0.2372423
161	0xbd45f358	-0.048327774
162	0xbe8ea254	-0.27858222
163	0xbde97b96	-0.11400525
164	0xb9bcdc00	-0.00036022067
165	0xbe91706e	-0.2840609
166	0x3cde67b6	0.027149063
167	0x3db81940	0.08989191
168	0x39850800	0.00025373697
169	0xbe04d407	-0.12971507
170	0xbd5385c8	-0.051641256
171	0x3d9b3518	0.07578486
172	0x3e216b52	0.15763596
173	0xbaa09400	-0.0012251139
174	0x3b1abc80	0.002361089
175	0xbe134f2e	-0.14385673
176	0xbe8d97e3	-0.27654943
177	0x3da903b6	0.08252661
178	0xbe8442fa	-0.2583235
179	0x3b1e4580	0.0024150312
180	0xbc51b540	-0.012799561
181	0x3e05ac52	0.13054016
182	0x3e503a04	0.20334631
183	0xbb6285b0	-0.0034564547
184	0x3e0eeabc	0.13956732
185	0x3dd4a0d4	0.10382238
186	0x3e39be5a	0.1813902
187	0x3e7fc838	0.24978721
188	0xbe32af49	-0.17449678
189	0x3d59fb03	0.0532179
190	0xbb5ac080	-0.00333789
191	0x3e344ed0	0.1760819
192	0xbdd15d34	-0.10222855
193	0x3cd4ed00	0.025991917
194	0x3e8e2713	0.27764186
195	0xbe80798d	-0.25092736
196	0x3dd60b80	0.10451412
197	0x3e6a0d74	0.22856694
198	0x3d9cb09e	0.076508746
199	0xbdcc2de2	-0.09969689
200	0x3d1c00c8	0.038086683
201	0x3e67e361	0.22645332
202	0x3b5e958b	0.0033963646
203	0x3e3fcdd2	0.18730858
204	0xbdf8aeb1	-0.12142695
205	0x3e681694	0.22664863
206	0xbe8b9dc7	-0.27268812
207	0xbd48648f	-0.048924025
208	0xbd752d39	-0.05985758
209	0x3e7b1368	0.24519122
210	0x3e4a919b	0.19782107
211	0xbe40da18	-0.18833196
212	0xbd05b3a3	-0.032642018
213	0x3db9f38f	0.09079658
214	0x3e86e702	0.2634812
215	0x3e9b4e5a	0.30333215
216	0x3d303ce5	0.043026824
217	0xbe79e404	-0.24403387
218	0x3d919cad	0.07109962
219	0xbe95d904	-0.29267132
220	0xbe649951	-0.2232411
221	0x3dd52d97	0.10409086
222	0x3e2900fc	0.16504282
223	0xbd51f376	-0.051257573
224	0x3e1c5bb0	0.15269351
225	0x3e7aba47	0.24485122
226	0x3df173f9	0.11789698
227	0x3e1a4fbe	0.15069482
228	0xbd8f0582	-0.069834724
229	0x3e21bfd3	0.15795831
230	0x3e4ed278	0.20197475
231	0xbe8d6c51	-0.276217
232	0x3e28ca37	0.16483389
233	0xbe83e85c	-0.25763214
234	0xb9739f20	-0.00023233565
235	0xbd46a18f	-0.048493918
236	0xbe96d8f5	-0.294624
237	0xbdc86336	-0.09784548
238	0xbe4c2d6a	-0.19939199
239	0x3dd4a678	0.10383314
240	0x3e713867	0.23556672
241	0xbe917d16	-0.28415745
242	0x3e268e99	0.16265334
243	0x3e067816	0.13131747
244	0xbe520802	-0.20510867
245	0xbe78f44d	-0.24311943
246	0x3dd9b624	0.10630444
247	0xbceefd80	-0.029173613
248	0x3c9ffd77	0.019530041
249	0x3e610720	0.21975374
250	0x3e71f898	0.23629987
251	0x3c8f82cd	0.017518425
252	0x3f22aec4	0.6354792
253	0x3e26145a	0.16218701
254	0x3e158599	0.14601745
255	0xbe687762	-0.22701791

sequential_1/dense_5/MatMul f4 [4, 15]
0	0x3ed68c4c	0.41903913
1	0x3dd95f3f	0.1061387
2	0x3e725282	0.23664287
3	0x3dcb35e9	0.09922392
4	0xbcdfd5a0	-0.027323544
5	0x3dff23bd	0.124579884
6	0xbf8e92e6	-1.113858
7	0xbee2449e	-0.44192976
8	0x3ef6f6f3	0.48235282
9	0x3fb947fb	1.4475092
10	0x3f09185c	0.53552794
11	0x3d3d9c1d	0.04629146
12	0x3e693c36	0.22776875
13	0x3fcd3ce7	1.6034211
14	0x400d2c7c	2.20584
15	0xbf093bb8	-0.5360675
16	0xbdb2754f	-0.08713781
17	0x3f89efea	1.0776341
18	0xbec2b062	-0.38025194
19	0x3edd63f6	0.43240327
20	0x3eda23c7	0.4260542
21	0x3fbaf0e2	1.4604762
22	0x3f0adc6c	0.5424259
23	0xbd7ede77	-0.062223878
24	0xbfa0342f	-1.2515925
25	0xbef974a4	-0.48721802
26	0xbe3fc549	-0.18727602
27	0xbf923005	-1.1420904
28	0xbfa76794	-1.3078485
29	0xbf8e73b9	-1.1129066
30	0x3eebe652	0.46074158
31	0x3e031465	0.12800749
32	0xc009876e	-2.148891
33	0xbd107d2c	-0.035275623
34	0xbec6b42a	-0.3880933
35	0xc01fdcc8	-2.4978504
36	0xbe43a2d6	-0.19105086
37	0x3d702593	0.058629584
38	0xbefeafb7	-0.49743435
39	0x3f92bda6	1.1464126
40	0xbc8485d5	-0.016177097
41	0xbdba96a8	-0.09110767
42	0x400114f3	2.0169036
43	0x3fbe6fce	1.487787
44	0xc01c5b78	-2.4430828
45	0xbe0f58fc	-0.13998789
46	0x3f5799c3	0.84218997
47	0x3f3c5ce9	0.7357927
48	0x3d2900d0	0.04126054
49	0x3ec75bca	0.38937217
50	0x3ea12f58	0.31481433
51	0xbfcf6a2a	-1.6204274
52	0x3eeef03e	0.46667665
53	0x3e6ec752	0.23318222
54	0x3f2146c6	0.62998617
55	0xbe1020e1	-0.14075042
56	0x3e23d6ee	0.15999958
57	0xbf4a220c	-0.789582
58	0xbfe34f06	-1.7758491
59	0x3f3214a0	0.6956272
