training_model/gesture_model.tflite (tflite, 315132 bytes, 8 tensors)

sequential_3/dense_14/BiasAdd/ReadVariableOp f4 [12]
0	0xc2137b3d	-36.87035
1	0xc2172f01	-37.795902
2	0xc21506f0	-37.256775
3	0xc217e9c6	-37.978294
4	0xc216ef0f	-37.733456
5	0xc218b021	-38.172
6	0xc2151a59	-37.27573
7	0xc21736ac	-37.80339
8	0xc2132ba1	-36.792606
9	0xc2139414	-36.894608
10	0xc211d16e	-36.45452
11	0xc21555ce	-37.333794

sequential_3/dense_13/BiasAdd/ReadVariableOp f4 [25]
0	0x4037b06b	2.8701427
1	0x00000000	0.0
2	0x3b8e1876	0.004336412
3	0xbd29809b	-0.041382413
4	0xbc78cd52	-0.015185671
5	0x3f25f76c	0.6483066
6	0x3f2f67d8	0.6851783
7	0xbc8c157c	-0.017100088
8	0xbbd58c31	-0.0065169563
9	0xbc5d806f	-0.0135193905
10	0xbba090b5	-0.004900063
11	0xbd3a959e	-0.045552842
12	0xbca5c602	-0.020236019
13	0xbbc0cff6	-0.005884166
14	0x3a1755bc	0.0005772968
15	0xbb0f51e2	-0.0021868874
16	0x3f2727c5	0.6529506
17	0x3fdcb477	1.7242573
18	0xbdac1802	-0.084030166
19	0xbdf40435	-0.11914865
20	0xbddddae2	-0.10832764
21	0xbca26848	-0.019825116
22	0x400f1daf	2.2361867
23	0x40078dd6	2.118032
24	0xbb80b340	-0.0039276183

sequential_3/dense_12/BiasAdd/ReadVariableOp f4 [50]
0	0xbae5ff4a	-0.0017547396
1	0xbc604e38	-0.013690524
2	0xbb3364c6	-0.0027373298
3	0xbb516dfe	-0.003195643
4	0xbc930c93	-0.017950332
5	0xb71f7780	-9.504962e-06
6	0xbc6db56c	-0.014508586
7	0xbaa410ad	-0.0012517177
8	0xbba805ed	-0.0051276595
9	0xbac52a63	-0.001504254
10	0xbc1eb469	-0.009686568
11	0xbbb65dd1	-0.005565383
12	0xbb01d9f6	-0.0019813753
13	0xbb1c3780	-0.0023836792
14	0xb5d5f200	-1.5940168e-06
15	0xbbc7fa1c	-0.0061028134
16	0xb93c8834	-0.00017979817
17	0xbaf84604	-0.0018941765
18	0xbb5871ba	-0.003302677
19	0xbbc1cc8c	-0.0059142765
20	0x00000000	0.0
21	0xbb96ca9a	-0.0046017887
22	0x3f0a1555	0.539388
23	0xbccc1cf9	-0.024916159
24	0xbc772915	-0.015085478
25	0xbc9e3def	-0.019316642
26	0xbc7be815	-0.015375157
27	0xbbc96610	-0.0061462
28	0xb955d5e0	-0.00020392938
29	0xbc059ce3	-0.0081550805
30	0xbb220017	-0.0024719292
31	0xb943bed0	-0.00018667732
32	0xbcb8db73	-0.022565579
33	0xbba92b9d	-0.00516267
34	0xba8b97c0	-0.0010650083
35	0xbb28a6da	-0.0025734217
36	0xbc8af58d	-0.01696279
37	0xbb7b7d60	-0.003837429
38	0xbc3d628b	-0.011559139
39	0xbb886a99	-0.004163098
40	0xbc04041e	-0.008057622
41	0xbc35a18c	-0.011085879
42	0xbb9c3740	-0.0047673285
43	0xbc1d5336	-0.009602359
44	0xbd0c2f49	-0.034224782
45	0xbbda6acb	-0.0066655627
46	0xbcc0df20	-0.023543894
47	0xbc985647	-0.018595828
48	0xbc23809b	-0.009979392
49	0xbbc6afa0	-0.0060634166

sequential_3/dense_11/BiasAdd/ReadVariableOp f4 [100]
0	0xbac07b28	-0.0014685141
1	0xbade970a	-0.0016982269
2	0x00000000	0.0
3	0x00000000	0.0
4	0x00000000	0.0
5	0xbb636b08	-0.0034701247
6	0xb9f6b6b8	-0.00047056912
7	0xbb886639	-0.0041625765
8	0x00000000	0.0
9	0xba8a71c0	-0.0010562465
10	0xbb783ada	-0.0037876875
11	0x00000000	0.0
12	0x00000000	0.0
13	0xbc037fd9	-0.008026087
14	0x00000000	0.0
15	0xba9431c0	-0.001130633
16	0xbb0c12a5	-0.0021373418
17	0xbaec15af	-0.0018011833
18	0xbac5787f	-0.0015065818
19	0x00000000	0.0
20	0x00000000	0.0
21	0x00000000	0.0
22	0xbb96f58b	-0.0046069077
23	0x00000000	0.0
24	0xbbbabe72	-0.0056989724
25	0x00000000	0.0
26	0xbb3064aa	-0.002691547
27	0x00000000	0.0
28	0xbab35939	-0.0013683207
29	0x00000000	0.0
30	0x00000000	0.0
31	0xbb0eea52	-0.0021807146
32	0x00000000	0.0
33	0xbb082f1a	-0.0020780028
34	0xbab31123	-0.0013661723
35	0xbb008bd0	-0.0019614585
36	0xbb0cb820	-0.0021472052
37	0x00000000	0.0
38	0x00000000	0.0
39	0x00000000	0.0
40	0x00000000	0.0
41	0x00000000	0.0
42	0x00000000	0.0
43	0x00000000	0.0
44	0x00000000	0.0
45	0xbbb0ef33	-0.0053996085
46	0x00000000	0.0
47	0x00000000	0.0
48	0x00000000	0.0
49	0x00000000	0.0
50	0x00000000	0.0
51	0x00000000	0.0
52	0xbb984eaf	-0.0046480517
53	0x00000000	0.0
54	0xbb4aff51	-0.0030974934
55	0xbb4da951	-0.0031381438
56	0x00000000	0.0
57	0x00000000	0.0
58	0xbb481d3e	-0.0030535008
59	0xbb7fc4c1	-0.0039027187
60	0xbb33cc99	-0.0027435182
61	0xba4143a0	-0.00073724426
62	0xbbe8d182	-0.0071050534
63	0x00000000	0.0
64	0xbaded873	-0.0017001763
65	0xbb28b513	-0.0025742694
66	0x00000000	0.0
67	0x00000000	0.0
68	0x00000000	0.0
69	0x00000000	0.0
70	0xbaf2a2ae	-0.0018511617
71	0x00000000	0.0
72	0xb9e55ba6	-0.00043746567
73	0x3a390d16	0.000705914
74	0xbb54b797	-0.003245806
75	0xbb5bd3a8	-0.0033542905
76	0xbbb1caea	-0.0054258006
77	0x00000000	0.0
78	0x00000000	0.0
79	0xbb8ddeed	-0.0043295533
80	0x00000000	0.0
81	0x00000000	0.0
82	0x00000000	0.0
83	0x00000000	0.0
84	0xba5f8508	-0.0008526598
85	0xbb14e566	-0.002271974
86	0xb9e56238	-0.00043751462
87	0x00000000	0.0
88	0xbb26654f	-0.0025389974
89	0x00000000	0.0
90	0xbc0188be	-0.007906137
91	0x00000000	0.0
92	0xbb960da6	-0.0045792637
93	0x00000000	0.0
94	0xbac5d79e	-0.0015094166
95	0xbb067367	-0.0020515563
96	0xb8c3aea0	-9.330851e-05
97	0x398dadc0	0.0002702307
98	0xbb2bc5f2	-0.0026210514
99	0xbae65985	-0.0017574286

sequential_3/dense_11/MatMul f4 [100, 714]
0	0x3d066bad	0.03281753
1	0xbcbeaf6f	-0.023277013
2	0x3cc55300	0.024087429
3	0xbcca80bd	-0.02471959
4	0xbd0ca16b	-0.034333628
5	0xbd423892	-0.04741723
6	0xbbd68967	-0.0065471414
7	0xbdaa46c8	-0.08314282
8	0x3da10323	0.078619264
9	0xba96904d	-0.0011487097
10	0xb6747800	-3.6428683e-06
11	0x3d15e842	0.03659845
12	0xbcf78c33	-0.03021822
13	0x3dadd6e8	0.08488256
14	0xbd1ef0f6	-0.038804017
15	0xbba53717	-0.0050419676
16	0x3ca5bd14	0.020231761
17	0x3c0133a1	0.007885844
18	0xbd8b7b9e	-0.068106875
19	0x3cdf93ea	0.02729221
20	0xbd146c45	-0.036236066
21	0x3d986190	0.074404836
22	0x3ce4555d	0.027872736
23	0x3cd261a1	0.025681319
24	0xba973efc	-0.0011539157
25	0xbd098771	-0.033576433
26	0x3d1d516b	0.038407724
27	0x3ba55ad9	0.0050462303
28	0x3cf2ec0b	0.02965357
29	0x3c9a0307	0.018800272
30	0x3d96e511	0.0736791
31	0xbdaa16a5	-0.083051
32	0xbdacca46	-0.08437018
33	0xbd7074d4	-0.058705166
34	0xbd248ba7	-0.040172245
35	0x3cf7b925	0.030239651
36	0x3d3acea7	0.045607235
37	0xbd74ae6b	-0.05973665
38	0xbd6059a7	-0.054773
39	0xbd0ac1a0	-0.03387606
40	0xbd661c96	-0.056179605
41	0x3d704c2b	0.05866639
42	0x3d1d3d38	0.03838846
43	0xbc707c3e	-0.014678059
44	0x3da781ec	0.081790775
45	0xbc974513	-0.018465554
46	0x3a3a4e38	0.00071069924
47	0xbce1f7e3	-0.027584022
48	0x3d70b9d7	0.05877098
49	0xbc25c5d4	-0.010117967
50	0xbd964bba	-0.073386624
51	0xbd9503b8	-0.072761
52	0x3d10a519	0.0353137
53	0x3d39ef0d	0.045393992
54	0xbc164055	-0.009170611
55	0x3d067436	0.03282567
56	0xbd42b463	-0.04753531
57	0xbd5fe98c	-0.054666087
58	0x3d646f4d	0.055770207
59	0xbcbe2427	-0.023210598
60	0x3d4daf59	0.050216053
61	0x3d876aad	0.06612144
62	0x3c548492	0.01297106
63	0xbdae357a	-0.085062936
64	0xbc454909	-0.012041339
65	0x3d4b2722	0.049597867
66	0x3d2c3a49	0.042047773
67	0x3d5a473e	0.053290598
68	0x3b36a796	0.0027870885
69	0xbd567dc3	-0.05236603
70	0x3d60f2f3	0.054919194
71	0xbd9aacff	-0.07552528
72	0xbd04558f	-0.032308158
73	0x3cf642cb	0.030061146
74	0xbd60d328	-0.054888874
75	0xbd4c13ee	-0.049823694
76	0x3da92a84	0.08260062
77	0x3c5233e3	0.012829754
78	0x3bea606a	0.0071526067
79	0x3aa36123	0.0012464862
80	0x3d807334	0.06271973
81	0x3cd4797f	0.02593684
82	0xbcf3f724	-0.029780932
83	0x3d1e55cb	0.038656037
84	0xbd8bb74a	-0.06822069
85	0x3ca63495	0.020288745
86	0x3d16f9f9	0.036859486
87	0xbda9ff51	-0.08300651
88	0xbc228075	-0.009918322
89	0xbbe18b91	-0.0068830927
90	0x3d179c53	0.037014317
91	0xbd3c4379	-0.045962784
92	0xbd1661b2	-0.036714263
93	0x3daa02f1	0.08301342
94	0xbda28264	-0.07935026
95	0xbca36d97	-0.019949717
96	0x3da25e68	0.07928163
97	0xbda04a06	-0.07826619
98	0x3bf56f29	0.007490058
99	0x3bab0233	0.005218768
100	0xbd8a0293	-0.06738772
101	0xbd59376c	-0.05303137
102	0xbd46586f	-0.04842418
103	0x3c8e9da2	0.01740915
104	0x3d29c795	0.041450102
105	0xbd90f93f	-0.0707879
106	0xbd95fd1b	-0.07323667
107	0x3d89f2a4	0.06735733
108	0x3d4951e0	0.049150348
109	0x3cd9aa35	0.026570419
110	0x3d73173e	0.059348337
111	0x3c9e0b4c	0.019292496
112	0x3ca45c7b	0.02006363
113	0xbd1c4f4a	-0.038161553
114	0x3d9ebe5b	0.07751151
115	0xbcc5401c	-0.024078421
116	0x3d927d31	0.071527846
117	0x3cfe4c90	0.031042367
118	0x3d914931	0.07094038
119	0xbcbdc903	-0.023167139
120	0xbd12696c	-0.03574507
121	0xbd72582f	-0.05916613
122	0x3c435497	0.011922023
123	0xbd0e7764	-0.03478183
124	0xbd7facd6	-0.06242069
125	0x3d9b0d3b	0.07570883
126	0x3ca932af	0.02065405
127	0x3cc93d5a	0.024565388
128	0x3d611fe6	0.05496206
129	0xbda90e6d	-0.082547046
130	0xbd2789e7	-0.040903
131	0x3d7b87a2	0.061408646
132	0xbc3a59aa	-0.011373917
133	0xbcf8c993	-0.030369556
134	0x3cc08987	0.023503078
135	0xbce4c94a	-0.027928013
136	0x3d4b701f	0.049667474
137	0xbd2d2bfa	-0.042278267
138	0xbda83858	-0.08213872
139	0x3c7f8a45	0.015596931
140	0xbcd936a1	-0.026515307
141	0x3c1d4cf7	0.009600869
142	0x3da6dbc4	0.08147386
143	0xbd800b60	-0.062521696
144	0x3d6514ed	0.05592816
145	0x3d27be9d	0.040953267
146	0xbda6923a	-0.08133359
147	0xbd65e9e3	-0.056131255
148	0x3c7a99aa	0.015295425
149	0xbd4b94fc	-0.04970263
150	0x3da9bcc1	0.08287955
151	0x3daaaf1d	0.083341815
152	0x3d6e15e7	0.058126356
153	0x3d319ef0	0.043364465
154	0x3d25dbb8	0.040492743
155	0x3d2736ef	0.040823873
156	0x3d9227d4	0.07136503
157	0x3b2ef3a8	0.0026695523
158	0x3d295e61	0.041349772
159	0x3cf73f8b	0.030181667
160	0x3c50600b	0.012718211
161	0x3d28620f	0.04110914
162	0x3d97a425	0.07404355
163	0xbd611462	-0.05495108
164	0xbd79e39a	-0.061008073
165	0x3d852ddc	0.065028876
166	0xbd3052bd	-0.043047655
167	0xbb1af92d	-0.0023647055
168	0x3ccfdcad	0.025373781
169	0x3d3f29a5	0.046670575
170	0x3d91566c	0.07096562
171	0x3c25fc5a	0.010130966
172	0xbd906c71	-0.070519336
173	0xba35fe14	-0.00069424626
174	0x3d142fd7	0.036178436
175	0x3d6c9669	0.05776063
176	0xbd4697d1	-0.048484627
177	0xbd0d387d	-0.0344777
178	0xbd8fecd2	-0.07027592
179	0x3d8db83b	0.06919905
180	0xbd67dacd	-0.05660515
181	0x3d110327	0.035403397
182	0xbd8367d3	-0.06416287
183	0x3d803253	0.062595986
184	0xbbd47162	-0.006483243
185	0x3c9fe586	0.019518625
186	0xbd8576fc	-0.06516835
187	0xbd4dfee2	-0.050291903
188	0x3d1085d7	0.03528389
189	0xbccede34	-0.02525244
190	0xbda8a145	-0.08233885
191	0xbda12adb	-0.07869502
192	0xbcfbc9ab	-0.030735811
193	0x3d3b418d	0.04571681
194	0x3ac8ecab	0.0015329322
195	0xbbd10eb4	-0.0063799266
196	0xbc33c537	-0.010972313
197	0x3cd280cf	0.025696186
198	0xbd9570ba	-0.072968915
199	0xbd862326	-0.06549673
200	0xbca3901a	-0.019966174
201	0x3ca7766a	0.020442206
202	0xbd97d6fb	-0.07414051
203	0xbd4bb7c9	-0.049735818
204	0xbca7e834	-0.020496465
205	0xbc45aa6a	-0.012064556
206	0x3c57b4a0	0.013165623
207	0x3bf61322	0.007509605
208	0x3d093390	0.03349644
209	0xbda73f53	-0.08166375
210	0xbbf32c84	-0.007421078
211	0x3cb3076e	0.021854129
212	0xbd461fd8	-0.048370212
213	0xbd1acb6a	-0.037791647
214	0xbdaa9aa2	-0.08330275
215	0x3d5c6916	0.053811155
216	0xbcc238b7	-0.023708684
217	0x3d2137d5	0.039359886
218	0xbcadf54c	-0.02123513
219	0xbd8444cb	-0.06458434
220	0xbda60d89	-0.081080504
221	0xbd8d8f9a	-0.069121554
222	0x3d7775ee	0.0604152
223	0xbd014cf2	-0.03156752
224	0xbc9fa402	-0.019487385
225	0xbcbc64d0	-0.02299729
226	0x3c9636b0	0.018336624
227	0xbda175a5	-0.07883767
228	0xbd5dcbaf	-0.054149326
229	0x3be7704d	0.007062948
230	0x3d48c173	0.049012613
231	0x3bba796c	0.005690744
232	0x3d40251d	0.046910394
233	0x3d0b0b06	0.03394606
234	0x3da54b92	0.080710545
235	0xbda9bf06	-0.08288388
236	0xbd8238d4	-0.06358495
237	0xbd979f4d	-0.07403431
238	0xbcfa26d2	-0.03053609
239	0xbd579ed4	-0.052641705
240	0x3cbf04b3	0.02331767
241	0xbd5bdab3	-0.053675365
242	0xbc9075bb	-0.017634263
243	0xbb9670bc	-0.0045910757
244	0x3bad7ccd	0.0052944184
245	0xbc40ae4f	-0.011760308
246	0xbb4cacc4	-0.0031230906
247	0x3bd85298	0.006601643
248	0x3cea404a	0.028595109
249	0x3ce752e5	0.02823777
250	0x3d5dcec6	0.054152273
251	0x3d9e3035	0.077240385
252	0xbdab0a93	-0.08351626
253	0x3d8a87bc	0.067641705
254	0x3d9f2522	0.077707544
255	0xbd073a18	-0.033014387

sequential_3/dense_12/MatMul f4 [50, 100]
0	0xbb26ad73	-0.0025432974
1	0xbe1207c8	-0.14260781
2	0xbe0958d4	-0.13412791
3	0x3d84dc92	0.06487383
4	0x3df22f46	0.11825423
5	0x3e3fde52	0.18737152
6	0xbcb0ce65	-0.021582792
7	0x3dcd945f	0.10038065
8	0xbde4fbd3	-0.11180844
9	0xbe1b1d19	-0.15147819
10	0x3deeac0e	0.116539106
11	0xbe2332ea	-0.15937391
12	0xbcdf25b0	-0.02723965
13	0x3c6fd924	0.014639173
14	0x3e1c84a3	0.15284972
15	0xbcddb733	-0.027064895
16	0xbce46b1c	-0.027883105
17	0x3d770082	0.06030322
18	0xbe1842a6	-0.14869174
19	0x3d5b0a44	0.053476587
20	0xbd8c4dfa	-0.0685081
21	0x3d8f86c2	0.07008125
22	0x3d262776	0.040564977
23	0x39960000	0.0002861023
24	0xbdefedcc	-0.11715278
25	0xbe2fbae7	-0.17161141
26	0xbd250f3e	-0.04029774
27	0xbe43996a	-0.19101492
28	0x3dfddba2	0.12395407
29	0x3da51042	0.080597416
30	0x3def3a32	0.11681022
31	0x3e467408	0.193802
32	0x3d070d98	0.03297195
33	0x3dacf623	0.08445384
34	0x3cce2818	0.025165603
35	0xbd2f487b	-0.042793732
36	0xbdd3b761	-0.10337711
37	0x3e1f1957	0.1553701
38	0x3d527fb4	0.05139132
39	0x3cece380	0.028917074
40	0x3e068aa3	0.13138823
41	0x3e4a84e3	0.19777255
42	0xbe2cd97a	-0.16879836
43	0x3e159267	0.1460663
44	0x3dd73b12	0.10509314
45	0xbe19b56f	-0.15010618
46	0xbd621198	-0.05519256
47	0xbd95b300	-0.07309532
48	0x3d784024	0.060608044
49	0x3d2f05a8	0.042730004
50	0x3e3acd01	0.18242265
51	0xbc78f0a0	-0.015194088
52	0xbd64e911	-0.055886332
53	0x3e1235d9	0.14278354
54	0x3d4a9c83	0.049465667
55	0x3df6e3d2	0.12055172
56	0x3e0d7f9d	0.13818212
57	0xbd60e00c	-0.054901168
58	0xbddddcfe	-0.108331665
59	0xbe4e0c9f	-0.20122002
60	0x3e3ff61d	0.18746229
61	0x3dcb3ab1	0.09923304
62	0x3db5e714	0.08881965
63	0xbda204a0	-0.079110384
64	0x3e1caf63	0.1530128
65	0xbe0ee54d	-0.13954659
66	0x3df237a2	0.11827017
67	0xbdbe0c5a	-0.092796996
68	0xbe216b9a	-0.15763703
69	0xbde6ae93	-0.11263766
70	0x3dffa417	0.124824695
71	0x3dc22c4e	0.09481107
72	0x3cde713a	0.0271536
73	0x3e0dd9ba	0.13852587
74	0x3d5cc768	0.053901106
75	0xbe17aacf	-0.14811252
76	0x3e0470c2	0.12933639
77	0xbddce127	-0.10785132
78	0xbdb3917a	-0.08767982
79	0x3d2b7a55	0.04186471
80	0xbd3a93a8	-0.045550972
81	0xbd64cc0c	-0.055858657
82	0x3e128d49	0.14311709
83	0xbdb597f3	-0.08866873
84	0xbd81adb0	-0.063319564
85	0x3d20544b	0.039142888
86	0xbe17e8e6	-0.14834937
87	0xbe10e40d	-0.14149494
88	0x3d2e2e52	0.042524643
89	0xbe3c1360	-0.18366766
90	0xbc1d0dc8	-0.009585805
91	0x3dc640f2	0.09680356
92	0x3d91a1a2	0.07110907
93	0xbe1df010	-0.15423608
94	0x3d99b2a8	0.07504779
95	0x3dd79dbf	0.105281346
96	0x3d1fc1a0	0.039003015
97	0xbd4cd040	-0.05000329
98	0xbe2f9819	-0.17147864
99	0xbd96c280	-0.07361317
100	0x3df3f42a	0.11911805
101	0xbd32c300	-0.043642998
102	0xbe3fb507	-0.187214
103	0xbd0f47d8	-0.034980625
104	0xbe2a78ad	-0.16647597
105	0xbcac8c9d	-0.021063143
106	0x3b7088fc	0.0036702743
107	0x3e02570d	0.1272852
108	0x3cac92e8	0.021066144
109	0x3da2f97a	0.0795774
110	0x3e168fad	0.14703245
111	0x3e41a659	0.18911113
112	0xbe3ef1dd	-0.18646951
113	0xbe43c8c2	-0.19119552
114	0xbc8f3418	-0.017480895
115	0x3db67f68	0.089110196
116	0x3dfc97a2	0.12333609
117	0x3cd35500	0.025797367
118	0x3e06a523	0.13148932
119	0xbd34778c	-0.04405932
120	0xbc4901d0	-0.012268499
121	0x3d855f0e	0.06512271
122	0x3df34f3e	0.118803486
123	0xbd83afc0	-0.06430006
124	0xbcde9068	-0.027168468
125	0xbdce8600	-0.10084152
126	0x3decaeba	0.11556764
127	0xbd6d89d8	-0.057992786
128	0x3e13ac0d	0.14421101
129	0x3df4830e	0.11939059
130	0xbd9d662d	-0.07685504
131	0x3e26ed58	0.16301477
132	0x3e03db63	0.12876658
133	0x3d9473b2	0.0724863
134	0xbe063e00	-0.13109589
135	0x3de54890	0.11195481
136	0x3dff8c07	0.1247788
137	0xbe015f86	-0.12634096
138	0x3e345949	0.17612185
139	0xbdc877f3	-0.097885035
140	0x3cd6eb68	0.026235297
141	0xbd9f0427	-0.07764464
142	0x3d771824	0.060325757
143	0xbd84d2d4	-0.06485525
144	0xbe3d1d7d	-0.1846828
145	0xbe3726cd	-0.17885895
146	0xbe1714b0	-0.14753985
147	0xbd3f2a28	-0.046671063
148	0xbd878440	-0.066170216
149	0x3d8ef666	0.069805905
150	0x3cb7f798	0.02245693
151	0xbd1f77d8	-0.03893265
152	0xbdf540b5	-0.119752325
153	0x3dacd006	0.08438115
154	0xbd7e6800	-0.0621109
155	0xbd8e30c7	-0.06942897
156	0x3e3781f7	0.17920671
157	0x3e0298c1	0.12753583
158	0xbe2eafa3	-0.17059188
159	0xbd96bf60	-0.07360721
160	0xbe1866ad	-0.14882918
161	0x3e0f6424	0.14003044
162	0xbde47290	-0.111546636
163	0x3d77d7f4	0.060508683
164	0xbe352470	-0.17689681
165	0xbdbabbad	-0.091178276
166	0x3da3e1c6	0.08002047
167	0xbda35793	-0.07975688
168	0xbd8e2b2c	-0.06941828
169	0xbd53eea8	-0.051741272
170	0xbddfd5a0	-0.109294176
171	0x3e03f533	0.12886505
172	0x3c264431	0.010148094
173	0x3d05adad	0.032636333
174	0x3e2fa8a3	0.17154174
175	0x3dd0b1ab	0.101901375
176	0x3d99fa13	0.07518401
177	0xbe15a97d	-0.14615436
178	0xbc5efb60	-0.013609737
179	0xbc2e01d0	-0.010620549
180	0x3e15852d	0.14601584
181	0x3e329589	0.17439856
182	0xbd8f63c0	-0.07001448
183	0xbe3b8660	-0.18312979
184	0xbcf5b89b	-0.029995253
185	0xbe05f6c1	-0.1308241
186	0xbd9944b4	-0.07483807
187	0xbd06a20c	-0.032869384
188	0x3d0a0058	0.033691734
189	0xbe0a5a60	-0.13511038
190	0xbe2f185c	-0.17099136
191	0x3e4ad39d	0.19807287
192	0x3de4f538	0.11179584
193	0xbda28e8d	-0.07937346
194	0xbe0df5e3	-0.1386333
195	0xbd8b2af4	-0.06795302
196	0x3e326092	0.17419651
197	0x3de0f54e	0.10984288
198	0x3d98c4a3	0.074593805
199	0xbe4612aa	-0.19343057
200	0x3d345c40	0.04403329
201	0x3dcb75e6	0.09934597
202	0x3dc95626	0.09830885
203	0x3d3e4800	0.046455383
204	0xbc8f8a80	-0.017522097
205	0x3cd4b950	0.02596727
206	0xbdd0934d	-0.101843454
207	0xbd3248d8	-0.0435265
208	0x3dfeed1a	0.12447567
209	0x3e384e2d	0.17998572
210	0xbdaeac60	-0.08528972
211	0x3de70ac2	0.11281349
212	0x3ca14b80	0.019689322
213	0xbe2dbbca	-0.16966167
214	0x3e26bd07	0.16283046
215	0x3dcc9f42	0.099913135
216	0xbd3c9b00	-0.046046257
217	0xbe3044f7	-0.17213808
218	0xbd842d4c	-0.06453952
219	0xbdce4653	-0.10072007
220	0xbcf411b0	-0.02979359
221	0xbdb498cd	-0.08818207
222	0xbd05bf18	-0.032652944
223	0xbda3dccd	-0.08001099
224	0x3e1dee47	0.15422927
225	0x3c3b8bd0	0.011446908
226	0x3e47ece7	0.19523965
227	0xbca2e300	-0.019883633
228	0xbcf3fc50	-0.029783398
229	0xbdea8b7a	-0.11452384
230	0xbe03334d	-0.12812538
231	0x3e156ca7	0.14592229
232	0xbe17d516	-0.1482738
233	0xbdb32793	-0.087477826
234	0x3dda3b26	0.10655813
235	0xbc4ab600	-0.012372494
236	0x3d65b58c	0.05608134
237	0xbe27b01d	-0.16375776
238	0xbe2f0783	-0.17092709
239	0xbdb67b8d	-0.08910284
240	0x3e34e6f3	0.17666225
241	0xbdae0333	-0.08496704
242	0x3df7dcae	0.12102638
243	0x3e1184f9	0.14210881
244	0x3e37bc7d	0.17942996
245	0x3d88b11a	0.066744044
246	0x3cdad268	0.026711658
247	0xbd31e5e8	-0.043432146
248	0x3c159f00	0.009132147
249	0x3dfd2826	0.12361173
250	0xbd4bc8d8	-0.049752086
251	0x3dd40232	0.10351981
252	0xbe17cba0	-0.1482377
253	0xbe1c9fca	-0.1529533
254	0xbd8360c0	-0.06414938
255	0x3ca9bdd0	0.020720392

sequential_3/dense_13/MatMul f4 [25, 50]
0	0x3e5efec4	0.21776873
1	0xbe305d1c	-0.17223018
2	0x3d674648	0.05646351
3	0x3e53dc5f	0.20689534
4	0x3e0331f6	0.12812027
5	0x3dd8392c	0.1055778
6	0x3de8f917	0.11375635
7	0x3e28748a	0.16450706
8	0xbe177105	-0.14789207
9	0xbe759765	-0.23983534
10	0x3e4c0e3e	0.19927308
11	0xbdad4577	-0.08460515
12	0xbe768106	-0.24072656
13	0xbd061418	-0.032734007
14	0xbe4b7895	-0.19870217
15	0xbd3e7548	-0.046498567
16	0xbbda8ac0	-0.0066693723
17	0x3e4bf762	0.19918588
18	0x3e0bd2bf	0.13654612
19	0xbe1ebd80	-0.15501976
20	0xbe539790	-0.20663285
21	0xbda2961d	-0.07938788
22	0x3ffd7c7f	1.9803618
23	0xbc884178	-0.01663278
24	0xbddb901d	-0.10720847
25	0x3c0a51dc	0.008442368
26	0xbe85d10e	-0.2613606
27	0xbe5d917a	-0.21637526
28	0xbe7dec5e	-0.24797198
29	0x3e8ce103	0.2751542
30	0xbc0f8f20	-0.008762151
31	0xbdd432eb	-0.10361274
32	0xbe82f734	-0.25579226
33	0xbd8cd930	-0.06877363
34	0x3ca98150	0.020691544
35	0x3dfc3eb0	0.12316644
36	0xbd394752	-0.045234032
37	0xbe737072	-0.23773363
38	0xbe7c9f9a	-0.24670258
39	0x3e8882ae	0.266622
40	0xbe58c518	-0.21168935
41	0x3dfc2040	0.12310839
42	0xbda4a37e	-0.08038996
43	0xbe336a5a	-0.17521039
44	0xbe581456	-0.21101508
45	0x3e334ffe	0.17510983
46	0x3e170262	0.14747003
47	0xbe49b09b	-0.19696276
48	0xbe1852e5	-0.14875372
49	0x3e683e8d	0.22680111
50	0x3e8b8703	0.27251443
51	0x3e262c9c	0.16227955
52	0x3dcfa3c4	0.10138658
53	0xbe3cec20	-0.1844945
54	0x3d9e0bb4	0.07717076
55	0xbe876200	-0.26441956
56	0xbd83df94	-0.064391285
57	0x3b013e00	0.0019720793
58	0x3e2e43b8	0.1701802
59	0xbe395b38	-0.18101203
60	0xbdbef75a	-0.09324522
61	0x3bf56d00	0.0074898005
62	0xbd834cb6	-0.06411116
63	0x3e46fee0	0.19433165
64	0xbe7034a9	-0.23457588
65	0x3e25388c	0.16134852
66	0xbcf54d90	-0.029944211
67	0xbd6f1c64	-0.058376685
68	0xbe4f778e	-0.2026045
69	0xbe0a80d4	-0.13525707
70	0xb8116000	-3.46601e-05
71	0x3e8ff8a9	0.281194
72	0xbd67aeec	-0.056563303
73	0xbe89c8cb	-0.26911005
74	0x3e0f1d92	0.13976124
75	0xbe648441	-0.22316076
76	0xbc025500	-0.007954836
77	0x3caf5600	0.021403313
78	0x3e0ece5c	0.13945907
79	0x3d5b7a70	0.053583562
80	0x3e06cfac	0.13165158
81	0xbe5f7624	-0.21822411
82	0xbe2b9c9e	-0.16758963
83	0x3d216890	0.03940636
84	0x3e33e1e8	0.17566645
85	0x3e440b94	0.19145042
86	0xbe38232c	-0.17982167
87	0xbd2b59f0	-0.041833818
88	0x3cceb9e0	0.025235116
89	0xbe8c98f0	-0.27460432
90	0x3ce974b0	0.028498024
91	0xbe81bd46	-0.25339717
92	0x3e851575	0.25992933
93	0x3d4c1820	0.049827695
94	0x3e6c8b52	0.23100021
95	0xbe84f073	-0.25964698
96	0x3e1a34fe	0.15059277
97	0xbe23f124	-0.16009957
98	0xbc839310	-0.016061336
99	0x3e2beff8	0.1679076
100	0xbe4fc12e	-0.20288536
101	0xbe74b89d	-0.2389855
102	0xbe26bf92	-0.16284016
103	0xbe80ee99	-0.25182036
104	0x3e5cd85f	0.21566914
105	0x3e0b176b	0.13583152
106	0x3e6c924d	0.23102684
107	0x3e15d264	0.14631039
108	0xbd093cb7	-0.033505168
109	0x3dbf07fa	0.09327693
110	0x3e090ac7	0.13383017
111	0xbd2b1d3f	-0.041775938
112	0x3deae28a	0.1146899
113	0xbcb4c78d	-0.02206781
114	0xbd521a54	-0.05129464
115	0x3d302fb8	0.04301426
116	0xbe2045aa	-0.15651575
117	0x3d9d318d	0.07675467
118	0xbe44dbcd	-0.19224472
119	0x3df20930	0.118181586
120	0xbe6152e9	-0.22004284
121	0xbd85fca5	-0.06542329
122	0xbe3f1373	-0.18659763
123	0x3e4733fc	0.19453424
124	0xbe615947	-0.22006713
125	0xbe81b65c	-0.25334442
126	0xbdf41d75	-0.11919681
127	0xbd01ee59	-0.031721447
128	0xbd716bff	-0.058940884
129	0xbdca3b28	-0.098745644
130	0xbe4e33b6	-0.20136914
131	0x3e027b3b	0.12742321
132	0xbda63934	-0.081163794
133	0xbde8adb4	-0.11361256
134	0x3e86c2b2	0.26320416
135	0x3e4a613a	0.19763651
136	0x3e2ffe78	0.17186916
137	0x3e0f0e3e	0.13970277
138	0x3c99d893	0.018780028
139	0xbe12be37	-0.14330374
140	0xbe51faa4	-0.20505768
141	0x3e1eda12	0.15512875
142	0x3e38eedb	0.18059866
143	0xbe3f2ce8	-0.18669474
144	0x3dff90b3	0.12478771
145	0x3e903b12	0.28170067
146	0xbe04e324	-0.12977272
147	0xbe1a4c05	-0.15068062
148	0xbca95c5e	-0.020673927
149	0xbe67418c	-0.22583598
150	0x3c98ada1	0.01863748
151	0x3db51e12	0.08843626
152	0xbe1c4c1e	-0.15263411
153	0xbe96160e	-0.293137
154	0x3e50a733	0.20376281
155	0xbde03484	-0.109475166
156	0xbe4141b0	-0.18872714
157	0x3d0950f8	0.033524483
158	0xbe89815f	-0.26856515
159	0x3e30fc25	0.17283686
160	0x3e5f0040	0.21777439
161	0xbe8edb55	-0.27901712
162	0xbe2d6606	-0.1693345
163	0x3deaac30	0.114586234
164	0xbe57004b	-0.20996206
165	0x3e595c3b	0.2122659
166	0x3dd0c89e	0.10194515
167	0xbe86820d	-0.26271096
168	0x3d8a3d4c	0.06749973
169	0x3e72d3ee	0.23713657
170	0x3daba7a4	0.08381584
171	0x3e26a509	0.16273893
172	0xbe8140d0	-0.2524476
173	0x3e12c809	0.1433412
174	0x3d506075	0.05087324
175	0x3e3b155b	0.18269865
176	0x3d6b473b	0.057440978
177	0xbd017481	-0.031605247
178	0x3e845e5d	0.25853243
179	0x3e4bf849	0.19918932
180	0x3e4abb04	0.19797903
181	0x3e1ce7d8	0.15322816
182	0xbdd54b8f	-0.10414802
183	0xbdf1fcbf	-0.118157856
184	0xbe8272c0	-0.25478172
185	0xbd071334	-0.032977298
186	0x3e2c2c12	0.16813686
187	0x3e09b1c8	0.13446724
188	0xbe4daa69	-0.20084538
189	0x3d44be00	0.04803276
190	0x3e76cd5e	0.24101779
191	0x3dbe7e8b	0.0930148
192	0x3dca2158	0.09869641
193	0x3d2f7c2b	0.042843025
194	0x3e8a53f0	0.27017164
195	0x3db4a0b2	0.08819713
196	0x3e6f4a31	0.23368146
197	0x3d2bd367	0.041949656
198	0x3e435b8c	0.19077891
199	0x3e460c5b	0.1934065
200	0x3d506d44	0.050885454
201	0xbe0f0ab9	-0.13968934
202	0xbd7301cc	-0.059327886
203	0xbe174cf3	-0.14775448
204	0x3e7739e0	0.24143171
205	0x3df38af6	0.11891739
206	0x3e5fa234	0.2183922
207	0xbe858e55	-0.26085153
208	0x3d904f09	0.07046325
209	0x3af29700	0.0018508136
210	0xbe5ea722	-0.21743444
211	0xbe6c5592	-0.23079517
212	0x3ddfdd8f	0.10930931
213	0x3d239414	0.03993614
214	0x3e336823	0.17520194
215	0xbe3b12bc	-0.18268865
216	0xbddf18c0	-0.108933926
217	0x3c9e8419	0.019350098
218	0xbe06951a	-0.13142815
219	0xbe8af111	-0.27137044
220	0xbdef8a9a	-0.11696358
221	0xbe7306f2	-0.23733118
222	0xbde4a652	-0.111645356
223	0xbdb7e49b	-0.0897915
224	0x3e8c6129	0.27417877
225	0xbd93388d	-0.071885206
226	0xbd38846f	-0.045048174
227	0xbcfb99ae	-0.030712929
228	0x3e15c9b4	0.14627725
229	0x3e89a699	0.26884916
230	0xbcd9e97a	-0.026600588
231	0x3dcdab7c	0.10042474
232	0x3df928c2	0.12165977
233	0x3d94fc1e	0.0727465
234	0x3e73b9a8	0.23801291
235	0xbdc72a2d	-0.09724841
236	0xbe3f6668	-0.18691409
237	0x3e7d60ed	0.24744006
238	0xbdb2c3b2	-0.08728732
239	0x3e5eb453	0.21748476
240	0xbdbce329	-0.09223015
241	0xbdc6ba0f	-0.097034566
242	0x3e4741f7	0.19458757
243	0xbdb0daa8	-0.08635455
244	0xbd51b9cd	-0.051202584
245	0x3e764e2b	0.24053256
246	0xbe270617	-0.16310917
247	0x3e1b433d	0.15162368
248	0xbe346f1d	-0.17620511
249	0x3e15a292	0.14612797
250	0xbdc96366	-0.09833412
251	0xbd068732	-0.032843776
252	0xbd0fb384	-0.03508331
253	0xbe610d32	-0.2197769
254	0xbe135cbb	-0.14390843
255	0xbcc9c680	-0.024630785

sequential_3/dense_14/MatMul f4 [12, 25]
0	0xc203483f	-32.820553
1	0xbeca61e8	-0.39527822
2	0x3ebabc67	0.36471865
3	0xbe04154f	-0.12898754
4	0x3b5d77ef	0.003379341
5	0xc20b0f19	-34.764744
6	0xc1f38ea4	-30.444649
7	0x3de71d34	0.11284867
8	0xbe97b6ec	-0.29631746
9	0x3e2ed91a	0.17075005
10	0x3e3f5d3e	0.18687913
11	0xbe1222fc	-0.14271158
12	0xbde9af4f	-0.114103906
13	0x3e99301f	0.29919526
14	0xbe9554ea	-0.29166347
15	0x3ed268f2	0.41095692
16	0xc20c0426	-35.00405
17	0xc20f971b	-35.897564
18	0x3e99c4c4	0.30032933
19	0xbd91d448	-0.071205676
20	0xbe327f57	-0.17431389
21	0x3eb4bdc9	0.35301045
22	0xc208e044	-34.21901
23	0xc20f5258	-35.830414
24	0x3d637ca6	0.055538796
25	0xc2025977	-32.587368
26	0xbcecda00	-0.028912544
27	0x3e448bd0	0.19193959
28	0x3ebbd516	0.3668601
29	0xbdb82d56	-0.08993022
30	0xc20a970e	-34.647514
31	0xc1f2c09f	-30.344053
32	0x3e326bb6	0.17423901
33	0xbed03e96	-0.4067275
34	0xbcb9869b	-0.022647193
35	0x3ebf575a	0.3737133
36	0xbecb815c	-0.3974713
37	0x3e276b65	0.16349562
38	0xbd8b24d2	-0.06794132
39	0xbeaec0b5	-0.341314
40	0x3e76beff	0.24096297
41	0xc20bb752	-34.929024
42	0xc2119576	-36.395958
43	0xbe2279c0	-0.15866756
44	0xbe526de9	-0.2054974
45	0x3e20771d	0.15670438
46	0xbe6d7ae8	-0.23191416
47	0xc2086143	-34.094982
48	0xc20f8817	-35.8829
49	0x3e082c0c	0.13298053
50	0xc2026655	-32.599934
51	0xbea082c5	-0.3134977
52	0xbe74c98e	-0.23905012
53	0x3d60edfa	0.054914452
54	0xbd8f8234	-0.07007256
55	0xc20a130e	-34.51861
56	0xc1f123c3	-30.142462
57	0x3e337b82	0.17527583
58	0x3e8585c2	0.26078612
59	0xbd82b3ef	-0.06381976
60	0xbe0c8de8	-0.13726008
61	0xbea2d9b1	-0.3180671
62	0x3eb6b702	0.356865
63	0xbe020a9f	-0.12699364
64	0x3e23acde	0.15983912
65	0x3e49b5c8	0.1969825
66	0xc20a7795	-34.61678
67	0xc20fa0dc	-35.90709
68	0x3e1c7651	0.15279509
69	0x3d44d8e9	0.048058424
70	0x3e5a12a9	0.21296181
71	0x3dac23b8	0.0840525
72	0xc2094879	-34.320774
73	0xc21105ba	-36.255592
74	0x3e5c196d	0.21494074
75	0xc2042f67	-33.04629
76	0xbe1d82d8	-0.15381944
77	0x3ea82c7c	0.3284644
78	0x3da0b398	0.07846755
79	0xbe3d0854	-0.18460208
80	0xc20a462f	-34.56854
81	0xc1f5d31d	-30.728083
82	0xbc9a8e6c	-0.01886674
83	0x3e8b748e	0.27237362
84	0xbdf04fa5	-0.11733941
85	0x3da3cca5	0.07998017
86	0x3e5c3f92	0.21508625
87	0x3be2e683	0.006924452
88	0x3dffa66f	0.124829166
89	0x3ea05bca	0.3132003
90	0xbe80e7de	-0.251769
91	0xc20ac713	-34.69441
92	0xc210e99e	-36.22814
93	0x3c52a9de	0.012857882
94	0x3eb4b84f	0.35296866
95	0xbe8fc5b8	-0.28080535
96	0x3e253e67	0.16137086
97	0xc207ec0d	-33.98052
98	0xc20e85e2	-35.630745
99	0x3e714425	0.23561151
100	0xc203052e	-32.75506
101	0x3e4855a8	0.19563925
102	0x3dd61e56	0.10455005
103	0x3e895d7d	0.26829138
104	0xbeb09aab	-0.34493002
105	0xc20be812	-34.97663
106	0xc1f1d591	-30.22928
107	0xbe95d7a0	-0.2926607
108	0xbe66d9b5	-0.22543986
109	0x3e04a6b3	0.12954216
110	0xbe240f1f	-0.16021393
111	0xbe56b3af	-0.20966981
112	0x3e069cf0	0.13145804
113	0x3ca53374	0.020166136
114	0x3e70abaf	0.23502992
115	0xbd74881d	-0.05970012
116	0xc20a5176	-34.57955
117	0xc21000ca	-36.00077
118	0x3e8d4d57	0.27598068
119	0xbc4fa8be	-0.012674509
120	0xbd649517	-0.055806246
121	0x3e8e45c8	0.27787614
122	0xc20842c9	-34.06522
123	0xc20ff064	-35.984756
124	0x3c3fdd02	0.011710407
125	0xc2027a3e	-32.619377
126	0xbe5ed683	-0.21761517
127	0xbe1e0635	-0.15432055
128	0x3e978f44	0.2960149
129	0x3d933c71	0.07189263
130	0xc20a486a	-34.570717
131	0xc1f3a745	-30.456675
132	0x3e9d7a12	0.30757195
133	0x3eb991d3	0.36244068
134	0x3e07285a	0.13198987
135	0xbe3c3935	-0.18381198
136	0xbe6a3d65	-0.22874983
137	0x3eb39632	0.35075527
138	0x3ddb9da7	0.10723429
139	0x3d9847aa	0.07435544
140	0x3e3d91f2	0.18512705
141	0xc20b8bb7	-34.88644
142	0xc2103f85	-36.06203
143	0x3ea08235	0.3134934
144	0x3e193587	0.14961825
145	0xbe7d135c	-0.24714416
146	0xbdd488c8	-0.103776515
147	0xc20862d6	-34.09652
148	0xc2100588	-36.0054
149	0xbe250330	-0.16114497
150	0xc2034897	-32.82089
151	0xbe9b95e9	-0.3038781
152	0x3eac5c02	0.33663946
153	0xbe613b45	-0.21995266
154	0xbe4861ab	-0.19568507
155	0xc20c5dae	-35.091484
156	0xc1f6d89d	-30.855768
157	0x3d30ac69	0.043133173
158	0x3eacce53	0.33751163
159	0xbd9fd9dc	-0.07805225
160	0x3e5d0a31	0.21585919
161	0x3d65432e	0.05597227
162	0x3e6d6439	0.23182763
163	0xbebcedd2	-0.36900192
164	0x3d8ad050	0.06778014
165	0xbdcaa321	-0.098943956
166	0xc20cac7a	-35.168434
167	0xc20f20d4	-35.78206
168	0xbcf74c86	-0.030187856
169	0xbe47c775	-0.1950968
170	0xbd62c026	-0.05535903
171	0x3e2cafba	0.1686391
172	0xc208a4ec	-34.161057
173	0xc20e91d9	-35.64243
174	0x3e060268	0.13086855
175	0xc2029493	-32.645092
176	0x3e87b382	0.2650414
177	0x3d02a128	0.03189197
178	0xbcf22612	-0.029559169
179	0x3e312038	0.17297447
180	0xc20b8581	-34.880375
181	0xc1f844c3	-31.033575
182	0x3d76452f	0.060124572
183	0xbd1b6dc1	-0.037946466
184	0xbdaeccc4	-0.0853515
185	0x3d461f19	0.0483695
186	0xbe51273e	-0.20425126
187	0xbd4a5f08	-0.049407035
188	0x3d5b2cbb	0.053509455
189	0xbb7c0d13	-0.0038459941
190	0xbe8650ec	-0.26233613
191	0xc209c653	-34.443676
192	0xc210ed45	-36.23171
193	0xbea3af80	-0.31969833
194	0xbdfbda30	-0.12297475
195	0x3e64f8ef	0.22360586
196	0xbe7bcdb4	-0.24590188
197	0xc20971fe	-34.36132
198	0xc20e679f	-35.601192
199	0xbe3fb644	-0.18721873
200	0xc20267c9	-32.601353
201	0x3dc4bdf4	0.09606543
202	0xbc8730ea	-0.016502816
203	0x3e63f2ff	0.22260664
204	0x3e4ff8f3	0.2030981
205	0xc20ad70a	-34.71
206	0xc1f5f242	-30.74329
207	0xbe50a5b6	-0.20375714
208	0xbc49f957	-0.012327514
209	0x3e7d24bf	0.24721049
210	0x3ea621b2	0.32447582
211	0x3e323467	0.17402802
212	0xbd85a6e3	-0.06525972
213	0xbde17b95	-0.110098995
214	0x3ea7a686	0.32744235
215	0x3e385b88	0.18003666
216	0xc20c9310	-35.143616
217	0xc211502a	-36.328285
218	0xbbcdd715	-0.0062817433
219	0xbe869813	-0.26287898
220	0xbe319cee	-0.1734502
221	0x3de4db75	0.111746706
222	0xc209d364	-34.456436
223	0xc20dff49	-35.499302
224	0x3e16603a	0.14685145
225	0xc20298ef	-32.64935
226	0x3ec9faf8	0.39449286
227	0x3e9b7c58	0.30368304
228	0xbe2866e8	-0.16445506
229	0x3e5bdd59	0.21471156
230	0xc209664d	-34.349903
231	0xc1f18ac1	-30.19275
232	0xbe859812	-0.26092583
233	0x3d4bf424	0.049793378
234	0x3ec80306	0.39064807
235	0xbebbe4aa	-0.36697894
236	0x3ead8562	0.33890826
237	0xbeacde28	-0.33763242
238	0xbc07c705	-0.008287196
239	0x3d697c8a	0.057003535
240	0xbe9ff8eb	-0.31244597
241	0xc209ee3d	-34.482655
242	0xc210ebf9	-36.230442
243	0x3dcaa953	0.09895577
244	0xbd5fd674	-0.054647878
245	0xbdcae491	-0.09906877
246	0xbebe92fd	-0.37221518
247	0xc20a697d	-34.603016
248	0xc20fc285	-35.93996
249	0xbebbda61	-0.36690047
250	0xc203be07	-32.935574
251	0xbd931f30	-0.07183683
252	0x3d262fb8	0.040572852
253	0xbe9814a8	-0.2970326
254	0xbe1fcc43	-0.15605263
255	0xc20bcf25	-34.95229
