training_model/gesture_model.tflite (tflite, 148608 bytes, 6 tensors)

sequential_6/dense_17/BiasAdd/ReadVariableOp f4 [6]
1.4508866 2.0568638 0.98182404 0.46711254 0.24748582 0.19386657
00000000: a7b6 b93f a8a3 0340 d258 7b3f 6029 ef3e
00000010: ec6c 7d3e f584 463e

sequential_6/dense_16/BiasAdd/ReadVariableOp f4 [15]
0.46784663 0.004915573 0.06264532 -0.047495216 0.18717882 -0.05394681 -1.5058751 -0.28902006
-0.6407787 -0.16512048 -0.90167063 0.15732704 -0.5368157 0.1908756 -0.23447981
00000000: 9889 ef3e d112 a13b 314c 803d 588a 42bd
00000010: ceab 3f3e 55f7 5cbd 84c0 c0bf 70fa 93be
00000020: 130a 24bf 5815 29be e3d3 66bf 571a 213e
00000030: c16c 09bf e574 433e 7a1b 70be

sequential_6/dense_15/BiasAdd/ReadVariableOp f4 [50]
-0.002597183 0.0 -0.0008565141 0.0 -0.0040646326 0.108006015 -0.0029269157 0.0
1.0068369 -0.00032001466 -0.0057447767 -0.0032947948 0.0 -0.003098477 0.0 -0.00029179035
-0.0037614857 0.0 0.46079484 -0.0031445026 -0.0031018127 0.0 -0.0030427584 0.08748482
-0.00042735809 -0.006610431 -0.0046139183 0.0 0.0 -0.005153782 -0.00056027446 -0.0032125267
-0.006122864 0.0 0.0 -0.0031464996 -0.0031348837 0.1559545 -0.75914055 -0.0031442232
-0.0032795758 0.0 0.0 0.0 0.0 -0.285157 -0.0031592667 -0.002106855
-0.0038076774 -0.0031588546
00000000: 8035 2abb 0000 0000 b087 60ba 0000 0000
00000010: 9c30 85bb 4232 dd3d 7fd1 3fbb 0000 0000
00000020: 08e0 803f a4c7 a7b9 ae3e bcbb 7ced 57bb
00000030: 0000 0000 d10f 4bbb 0000 0000 70fb 98b9
00000040: 4283 76bb 0000 0000 4ded eb3e 0014 4ebb
00000050: c847 4bbb 0000 0000 0469 47bb 3e2b b33d
00000060: 080f e0b9 509c d8bb 5a30 97bb 0000 0000
00000070: 0000 0000 0fe1 a8bb 62df 12ba 4189 52bb
00000080: 4ea2 c8bb 0000 0000 0000 0000 8135 4ebb
00000090: 9f72 4dbb 89b2 1f3e 0957 42bf 500f 4ebb
000000a0: 27ee 56bb 0000 0000 0000 0000 0000 0000
000000b0: 0000 0000 1900 92be b30b 4fbb 2913 0abb
000000c0: 3a8a 79bb c904 4fbb

sequential_6/dense_15/MatMul f4 [50, 714]
0.03342506 0.07515329 -0.08541359 -0.089474894 -0.07436069 0.059083804 -0.043028545 -0.051390544
0.010315755 -0.05988287 -0.0390098 0.067052566 0.017408362 -0.079839624 -0.04092107 0.0046463823
0.0484462 0.04229942 0.06540498 -0.042274773 -0.000995798 0.061816726 0.053604756 0.06103334
-0.02098809 0.08486219 -0.047450833 0.055788424 0.030150672 -0.04500797 0.020317765 0.05827344
0.079318665 0.07295084 -0.08994989 0.033764135 -0.08105359 0.06779618 0.064886354 -0.065405004
-0.07980028 0.047978792 0.07530365 -0.050949305 -0.005384406 0.033979986 -0.044113975 0.0030553746
-0.07457396 -0.04276205 -0.0064241616 -0.074350365 0.08281824 -0.08701161 -0.06453575 0.07951122
-0.088056125 0.07623543 0.038434017 -0.0066515035 -0.015865868 -0.06244024 -0.0046232035 -0.06691841
-0.008723953 0.060378022 0.02278191 -0.061272718 0.01983734 -0.027123224 0.07638879 -0.08578759
-0.084404364 0.07736388 -0.011810293 0.00092949125 -0.0052774493 -0.06683739 0.0809928 0.018499658
-0.05156638 -0.028634528 0.0125111295 -0.052903935 -0.020388205 0.071027026 0.07506291 0.012711574
0.029122245 0.06675483 0.058470476 -0.08073223 -0.061843682 0.051264014 -0.04401817 -0.061242007
-0.083656795 -0.015884368 -0.05561521 -0.006821321 0.028935926 0.041167352 -0.004021854 0.05778596
-0.03412126 0.048721865 0.001931456 -7.32101e-05 0.034887396 -0.06971582 -0.06799155 -0.04663962
0.048468027 0.045901667 -0.03531109 -0.018487372 0.08107274 -0.06147603 0.020499362 -0.07317092
0.08577976 -0.007250558 0.004978299 -0.004146628 -0.034524743 -0.07249616 -0.025770318 -0.057002176
-0.010928349 0.054070756 -0.0016300675 0.08475853 -0.07041147 -0.010384555 -0.042585142 0.008375423
0.062005494 -0.07638922 -0.053512666 -0.038369555 -0.04521436 -0.039264247 -0.087424845 -0.038868476
-0.083941154 0.05561725 -0.0047060284 -0.01779791 0.06309254 0.05171381 0.030394748 -0.05407183
-0.016576197 -0.029020984 -0.0729851 0.06677352 0.03129419 -0.053116694 0.04148974 -0.07210527
-0.010817481 -0.051141545 -0.027232014 0.0696375 -0.015174892 0.0063931113 0.038781047 0.064204164
-0.032219272 0.015009703 -0.016814653 -0.0016974282 0.010914982 0.07924026 -0.07627666 0.031860344
-0.021293458 0.044402137 0.06257791 0.04440884 0.076375045 0.042891458 -0.011218827 -0.083271064
0.019950258 -0.062189076 0.02710091 0.009069755 0.0660946 -0.034506004 0.07011295 -0.04768359
-0.03529256 -0.03592143 0.07099141 0.053969447 -0.0660938 -0.01731224 0.029405482 0.0688772
0.008455636 0.010841701 -0.08761001 -0.0680156 -0.05852158 -0.040661894 0.027479745 0.050636668
0.038921155 0.032858398 -0.02578545 0.006094806 0.06154158 -0.008353902 -0.081583515 -0.025095265
0.04249276 0.034361437 -0.06034575 0.033602327 -0.024264285 0.025106492 -0.015190361 0.043705042
-0.08158594 0.04351596 0.07826606 0.0013953584 0.047733437 -0.021094035 0.023284756 0.03914293
-0.027931737 -0.074313775 -0.029555023 -0.06914938 0.006998052 -0.025320932 0.0050443243 0.011043173
-0.07137012 -0.02878674 -0.057087183 0.08487834 0.0017163645 0.0036353897 -0.03699661 -0.061215334
0.043205112 0.06524313 -0.02732359 -0.06782679 -0.07887899 0.019708434 0.05683891 0.06050146
00000000: b7e8 083d f8e9 993d 52ed aebd 9d3e b7bd
00000010: 6b4a 98bd dc01 723d b33e 30bd e47e 52bd
00000020: 6a03 293c be47 75bd bdc8 1fbd db52 893d
00000030: fb9b 8e3c f582 a3bd da9c 27bd ae40 983b
00000040: 866f 463d 2842 2d3d 0cf3 853d 5028 2dbd
00000050: 7085 82ba 8933 7d3d a990 5b3d 18fe 793d
00000060: 37ef abbc 3acc ad3d ce5b 42bd 6782 643d
00000070: 8bfe f63c 475a 38bd 7171 a63c 21b0 6e3d
00000080: d371 a23d 4067 953d a637 b8bd 434c 0a3d
00000090: 6dff a5bd b9d8 8a3d 23e3 843d 0ff3 85bd
000000a0: 546e a3bd 6985 443d cd38 9a3d 38b0 50bd
000000b0: ac6f b0bb 992e 0b3d dbb0 34bd ae3c 483b
000000c0: 3bba 98bd 4227 2fbd c681 d2bb 0145 98bd
000000d0: 9c9c a93d 2533 b2bd 522b 84bd c7d6 a23d
000000e0: c556 b4bd 5221 9c3d fd6c 1d3d dbf4 d9bb
000000f0: 23f9 81bc 56c1 7fbd 3e7e 97bb 850c 89bd
00000100: e9ee 0ebc f24e 773d 21a1 ba3c 1af9 7abd
00000110: eb81 a23c 8631 debc ba71 9c3d 67b1 afbd
00000120: 32dc acbd f470 9e3d f67f 41bc 1aa9 733a
00000130: 74ee acbb 0be2 88bd 8edf a53d 988c 973c
00000140: 4537 53bd f592 eabc 7bfb 4c3c ccb1 58bd
00000150: 2a05 a7bc 9e76 913d 95ba 993d 3544 503c
00000160: c691 ee3c c2b6 883d bd7e 6f3d f056 a5bd
00000170: cd4f 7dbd 37fa 513d 664c 34bd e6d8 7abd
00000180: 4154 abbd ef1f 82bc c6cc 63bd 6385 dfbb
00000190: 090b ed3c 199f 283d c2c9 83bb f9b0 6c3d
000001a0: bcc2 0bbd 9490 473d e928 fd3a 6088 99b8
000001b0: 16e6 0e3d 2bc7 8ebd 273f 8bbd 3009 3fbd
000001c0: 6986 463d 6303 3c3d 5da2 10bd d472 97bc
000001d0: 7709 a63d 4ace 7bbd 47ee a73c a3da 95bd
000001e0: 4cad af3d 1796 edbb 0021 a33b 70e0 87bb
000001f0: d169 0dbd de78 94bd 461c d3bc 1d7b 69bd
00000200: d10c 33bc 4c79 5d3d fda7 d5ba e195 ad3d
00000210: e433 90bd fb23 2abc c26d 2ebd 1239 093c
00000220: 79f9 7d3d f471 9cbd 1930 5bbd 6529 1dbd
00000230: b132 39bd 8cd3 20bd cc0b b3bd 8d34 1fbd
00000240: 57e9 abbd eace 633d 0735 9abb eccc 91bc
00000250: a936 813d dcd1 533d 68fe f83c 6c7a 5dbd
00000260: ceca 87bc 6abd edbc 3679 95bd 8ec0 883d
00000270: 562e 003d e490 59bd 25f1 293d eeab 93bd
00000280: ce3b 31bc cc79 51bd ac15 dfbc 1b9e 8e3d
00000290: 1ca0 78bc 4e7d d13b e0d8 1e3d 797d 833d
000002a0: 5bf8 03bd 42eb 753c e2be 89bc 3d7c deba
000002b0: c1d4 323c b848 a23d f036 9cbd fe7f 023d
000002c0: 9e6f aebc 04df 353d d928 803d 0be6 353d
000002d0: 856a 9c3d f4ae 2f3d 2ccf 37bc 058a aabd
000002e0: b96e a33c f9b9 7ebd ba02 de3c 4f99 143c
000002f0: 9b5c 873d 2b56 0dbd 6197 8f3d de4f 43bd
00000300: ee8e 10bd 5922 13bd f263 913d 110f 5d3d
00000310: 305c 87bd 66d2 8dbc c4e3 f03c 7d0f 8d3d
00000320: 8289 0a3c 64a1 313c e06c b3bd c34b 8bbd
00000330: 53b4 6fbd 168d 26bd 341d e13c 6568 4f3d
00000340: ca6b 1f3d 8796 063d 023c d3bc f0b6 c73b
00000350: 0613 7c3d cede 08bc 4215 a7bd 9694 cdbc
00000360: e30c 2e3d 94be 0c3d 1b2d 77bd 98a2 093d
00000370: e5c5 c6bc 21ac cd3c fee0 78bc 0f04 333d
00000380: 8816 a7bd cb3d 323d f549 a03d 75e4 b63a
00000390: 2384 433d 66cd acbc acbf be3c 5654 203d
000003a0: 19d1 e4bc d231 98bd 601d f2bc 319e 8dbd
000003b0: ea4f e53b d86d cfbc dc4a a53b 6dee 343c
000003c0: 7f2a 92bd 2bd2 ebbc 40d4 69bd b2d4 ad3d
000003d0: a3f7 e03a b83f 6e3b c289 17bd eebc 7abd
000003e0: d8f7 303d 319e 853d b9d5 dfbc c6e8 8abd
000003f0: 4f8b a1bd 9573 a13c ebcf 683d 61d0 773d

sequential_6/dense_16/MatMul f4 [15, 50]
-0.18511793 -0.28542143 0.018226277 0.12502274 -0.08522006 -0.3968268 -0.16097976 -0.15144731
1.5440394 0.22419216 -0.05732258 0.25941515 -0.07315998 0.28611493 0.22741419 0.23608322
0.014357086 -0.023686826 0.38210437 0.047219247 -0.032732278 -0.012288183 -0.20746094 0.01485521
0.18975195 0.1404986 0.020217268 -0.08982825 -0.10170078 -0.062162127 0.2675695 0.1365029
0.16034734 -0.1609095 -0.15313031 -0.27746257 -0.16045418 -1.882436 -1.432741 0.08215749
-0.18001238 -0.13743992 -0.012708098 -0.05765669 0.22128731 0.47611034 -0.09350854 0.061137892
0.1523825 0.10888848 0.03516423 -0.11091611 -0.20701793 -0.26997653 -0.2885345 0.013871025
0.06414769 0.0911845 -0.20223308 0.22049165 0.18439911 -0.051908735 -0.24727753 0.25852197
-0.13443893 -0.19213699 -0.14940259 -0.2624912 -0.120986246 0.10831374 0.052046835 -0.061780453
-0.15633121 0.25810093 -0.061736107 0.11995498 -0.06289993 0.22504193 -0.22805403 0.07773827
-0.2978036 0.29247347 -0.02364893 -0.26505873 0.0038878322 0.1545606 -0.23769124 -0.19733784
-0.3017781 0.14330377 -0.15308058 0.28644532 -0.12306441 -0.21344355 0.2602502 -0.09069848
0.18083687 -0.295572 -0.12572436 -0.26785517 0.08193171 0.12707776 -0.14559953 0.28566206
0.21807356 -0.79996216 -0.17543618 -0.0826565 0.8888449 0.25377965 -0.14615102 -0.27536216
0.07298577 0.103318304 -0.08867237 0.19462442 -0.1999359 0.114365906 -0.23438792 -0.101103395
0.2284407 -0.11636205 0.042250484 -2.3759875 0.13266236 0.26863268 -0.07542154 -0.15276797
-0.037035406 -0.27499557 0.28790012 -0.0887191 0.17559138 0.28112662 0.09895021 -0.2440243
-0.10874516 2.9838703 0.24047677 0.030141443 -0.044068847 -0.2883985 0.18899214 0.13583219
-0.19297516 0.15030275 -0.21859814 -0.18750069 -0.2916796 0.095957786 0.034372766 0.21681154
0.17694627 0.29475737 -0.2929712 -0.13150975 0.21845812 -0.14938307 -0.07482736 0.05408007
0.0003226418 -0.08662699 0.080818206 0.0053866804 -0.23845589 0.0032760203 0.23350625 -0.25479862
-0.09555778 -0.2895913 -0.26184177 -0.15016018 0.24221063 0.118621655 0.17865795 0.21052405
0.17997171 0.15131953 -0.002683133 0.1217986 -0.2277652 -0.16250864 -0.20227341 0.037837207
0.25125986 0.26299277 -0.12535536 -0.25295705 0.09719483 0.2598553 -0.05099435 0.28072464
0.09728417 -0.21338856 0.061982185 -0.09399117 0.067335844 0.07965402 -0.1427007 0.21538489
-0.22859901 -0.019695044 0.10482499 -0.00873369 0.17109273 1.6681112 0.22679538 -0.069372475
1.227897 -0.20275436 -0.220309 0.21988212 -0.21736288 0.21396053 0.25877714 0.29857457
0.297716 -0.28471726 -0.11062389 -0.13704719 0.113806166 0.23109263 -0.24009557 2.2109022
0.19056635 0.12745138 0.010613653 -0.105354846 0.22903335 -0.0048294286 -0.123450816 -0.2757508
0.15131982 0.2981254 0.090155095 -0.017402273 0.093849204 2.5858293 -1.1086917 -0.04371544
0.061656628 0.21865201 -0.09868756 0.2607845 0.12840307 1.5613333 -0.27750978 0.1379805
-0.06314239 -0.022482168 0.26093853 0.2782898 -0.2664041 -0.06320448 0.23557013 -0.307537
00000000: 8e8f 3dbe c222 92be 464f 953c f605 003e
00000010: db87 aebd e22c cbbe e1d7 24be 0115 1bbe
00000020: 15a3 c53f a192 653e 15cb 6abd 10d2 843e
00000030: e6d4 95bd a87d 923e 44df 683e cdbf 713e
00000040: fc39 6b3c e00a c2bc 2fa3 c33e f868 413d
00000050: 4812 06bd 6054 49bc a470 54be 4463 733c
00000060: 564e 423e ddde 0f3e af9e a53c e0f7 b7bd
00000070: 8048 d0bd b79d 7ebd dffe 883e 6bc7 0b3e
00000080: 1832 243e 76c5 24be 31ce 1cbe 930f 8ebe
00000090: 1a4e 24be aaf3 f0bf 0f64 b7bf 3042 a83d
000000a0: 2a55 38be 0dbd 0cbe a035 50bc 6c29 6cbd
000000b0: 2499 623e bcc4 f33e 6881 bfbd ba6b 7a3d
000000c0: 280a 1c3e ec00 df3d 5e08 103d fc27 e3bd
000000d0: 82fc 53be 5d3a 8abe cbba 93be 4c43 633c
000000e0: dd5f 833d f0be ba3d 3016 4fbe 90c8 613e
000000f0: 1fd3 3c3e 419e 54bd 5236 7dbe fe5c 843e
00000100: 5caa 09be 8fbf 44be fefc 18be 3f65 86be
00000110: a3c7 f7bd 98d3 dd3d 102f 553d 800d 7dbd
00000120: 4a15 20be ce25 843e 00df 7cbd f5aa f53d
00000130: aed1 80bd 6471 663e ff86 69be 3e35 9f3d
00000140: b779 98be 15bf 953e 67bb c1bc c7b5 87be
00000150: 00cb 7e3b 2245 1e3e 5565 73be ee12 4abe
00000160: a982 9abe 39be 123e 28c1 1cbe f6a8 923e
00000170: 3209 fcbd f290 5abe 843f 853e 20c0 b9bd
00000180: 4d2d 393e 3755 97be e3bd 00be 5024 89be
00000190: d0cb a73d ac20 023e 0b18 15be 4c42 923e
000001a0: ad4e 5f3e 52ca 4cbf 8ba5 33be d047 a9bd
000001b0: 578b 633f 68ef 813e 9da8 15be 45fc 8cbe
000001c0: 9079 953d 8c98 d33d dc99 b5bd a04b 473e
000001d0: ffbb 4cbe ac38 ea3d 6303 70be 4c0f cfbd
000001e0: 5cec 693e 3a4f eebd d80e 2d3d 2e10 18c0
000001f0: a4d8 073e 398a 893e 9c76 9abd 356f 1cbe
00000200: 70b2 17bd 38cc 8cbe a567 933e 5cb2 b5bd
00000210: 3ace 333e d4ef 8f3e 68a6 ca3d 82e1 79be
00000220: c8b5 debd bbf7 3e40 8b3f 763e 30eb f63c
00000230: 8981 34bd f8a8 93be 2887 413e 9817 0b3e
00000240: 489b 45be f7e8 193e 31d8 5fbe 2e00 40be
00000250: 0757 95be 8485 c43d 75ca 0c3d d803 5e3e
00000260: 6731 353e 70ea 963e 5200 96be 7eaa 06be
00000270: 7cb3 5f3e e0f7 18be 163f 99bd 1083 5d3d
00000280: 4028 a939 7e69 b1bd 0484 a53d c082 b03b
00000290: c82d 74be 80b2 563b 431c 6f3e f774 82be
000002a0: ccb3 c3bd 5045 94be 2010 86be 97c3 19be
000002b0: 1006 783e e9ef f23d 1cf2 363e 9e93 573e
000002c0: 814a 383e 82f3 1a3e 80d7 2fbb 8b71 f93d
000002d0: 483b 69be aa68 26be c320 4fbe 30fb 1a3d
000002e0: 22a5 803e fda6 863e 285d 00be 9683 81be
000002f0: 150e c73d c10b 853e 74df 50bd 24bb 8f3e
00000300: ec3c c73d 8882 5abe 08e1 7d3d 717e c0bd
00000310: 60e7 893d a621 a33d 2220 12be db8d 5c3e
00000320: dc15 6abe 8057 a1bc 7cae d63d c017 0fbc
00000330: ef32 2f3e ab84 d53f 0c3d 683e 2813 8ebd
00000340: bb2b 9d3f d79e 4fbe af98 61be c728 613e
00000350: 6094 5ebe 7818 5b3e 707e 843e c4de 983e
00000360: 3b6e 983e 76c6 91be c78e e2bd 1956 0cbe
00000370: 3513 e93d 8ca3 6c3e 9ddb 75be 6c7f 0d40
00000380: d323 433e 9d82 023e e3e4 2d3c 48c4 d7bd
00000390: b887 6a3e 2f40 9ebb c8d3 fcbd 352f 8dbe
000003a0: 95f3 1a3e e4a3 983e 3ca3 b83d 368f 8ebc
000003b0: 0334 c03d 3a7e 2540 9ce9 8dbf f60e 33bd
000003c0: a98b 7c3d 50e6 5f3e b41c cabd 8c85 853e
000003d0: 187c 033e c5d9 c73f c315 8ebe c34a 0d3e
000003e0: cc50 81bd 862c b8bc bc99 853e 007c 8e3e
000003f0: 1e66 88be 5a71 81bd 4c39 713e 7d75 9dbe

sequential_6/dense_17/MatMul f4 [6, 15]
3.0135121 0.37793723 1.0394605 -0.29669896 -0.1544147 -0.12560079 -0.49198017 1.6272823
0.7405554 0.14519039 0.11690113 0.86534345 1.8164994 1.8684218 1.3011285 1.8858397
0.21707122 1.9661722 0.16762742 1.3547373 -0.14923772 1.4642154 -0.13826665 0.54419225
-0.037280105 1.3500401 0.03311528 1.8668584 2.7103019 1.2221982 2.8533628 0.45863402
1.3629246 0.34149298 1.9398099 -0.07840892 0.42595208 0.6163131 0.9873773 0.4609564
1.6519113 0.28058898 -1.5214813 1.0207275 0.6134881 -0.3205508 0.17713124 -1.3190486
0.21186242 0.721008 -0.20942488 1.4381438 0.74248797 0.038144924 0.16078801 1.2666565
3.0294466 1.6513227 1.7292969 1.9269687 -1.2525088 -0.13165666 1.3029759 -0.32237148
1.5493952 0.056813624 -0.80438566 0.8106744 -0.16305722 0.028623907 1.3752996 -0.20470299
-1.1575383 -0.524358 1.2659961 0.7129157 0.023544436 1.3792304 -0.31036997 0.6861086
0.28551397 -1.2464172 1.5625092 0.67671335 -0.515478 -0.6402364 0.37095258 -0.43486488
-0.022317067 1.4763553
00000000: 62dd 4040 fd80 c13e 0b0d 853f ede8 97be
00000010: e31e 1ebe 7e9d 00be d3e4 fbbe c94a d03f
00000020: 0a95 3d3f caac 143e dc69 ef3d 2687 5d3f
00000030: 0d83 e83f 7228 ef3f 618b a63f 3263 f13f
00000040: eb47 5e3e 88ab fb3f 86a6 2b3e 0868 ad3f
00000050: c6d1 18be 696b bb3f c695 0dbe 2f50 0b3f
00000060: 06b3 18bd 1dce ac3f e3a3 073d 37f5 ee3f
00000070: 9675 2d40 fe70 9c3f 7f9d 3640 14d2 ea3e
00000080: 5074 ae3f 2bd8 ae3e b14b f83f db94 a0bd
00000090: 6416 da3e b2c6 1d3f c2c4 7c3f 7a02 ec3e
000000a0: d471 d33f 5ca9 8f3e e6bf c2bf 33a7 823f
000000b0: 8e0d 1d3f 3c1f a4be e461 353e 96d6 a8bf
000000c0: 76f2 583e fb93 383f 7a73 56be 1915 b83f
000000d0: b113 3e3f da3d 1c3d 9da5 243e cd21 a23f
000000e0: 74e2 4140 8b5e d33f 9a59 dd3f e9a6 f63f
000000f0: 3552 a0bf 01d1 06be eac7 a63f e00d a5be
00000100: 9552 c63f 67b5 683d 38ec 4dbf 5c88 4f3f
00000110: 79f8 26be af7c ea3c d109 b03f a99d 51be
00000120: 372a 94bf 533c 06bf 290c a23f a581 363f
00000130: 43e0 c03c 9f8a b03f d0e8 9ebe d0a4 2f3f
00000140: e32e 923e 998a 9fbf 4d00 c83f 163d 2d3f
00000150: 5ef6 03bf 88e6 23bf 7fed bd3e 9ca6 debe
00000160: 48d2 b6bc 36f9 bc3f
