training_model/gesture_model.tflite (tflite, 99064 bytes, 8 tensors)

sequential_3/dense_10/BiasAdd/ReadVariableOp f4 [8]
-0.0031589752 -0.0041830544 -1.4330294 0.4343965 -1.4958903 0.38478735 -0.025782457 -1.5476393
00000000: cf06 4fbb 0112 89bb 826d b7bf 3869 de3e
00000010: 5579 bfbf d902 c53e bb35 d3bc 0b19 c6bf

sequential_3/dense_11/BiasAdd/ReadVariableOp f4 [4]
-0.12980051 1.3792375 -1.5433564 -1.148248
00000000: 6dea 04be db8a b03f b48c c5bf caf9 92bf

sequential_3/dense_12/BiasAdd/ReadVariableOp f4 [4]
-3.4170442 1.0271635 1.5625967 -2.7075233
00000000: dab0 5ac0 187a 833f 2b03 c83f 1048 2dc0

sequential_3/dense_9/BiasAdd/ReadVariableOp f4 [20]
-0.0009335575 0.0 -0.002850627 -0.0009382218 -0.0031413962 0.0 -0.0031223733 0.0
0.0 0.0 0.0 -0.005644939 0.0 0.0 -0.0031044802 0.0
-0.0031480105 -0.0035417585 0.0 0.0
00000000: fcb9 74ba 0000 0000 96d1 3abb 00f3 75ba
00000010: e2df 4dbb 0000 0000 bba0 4cbb 0000 0000
00000020: 0000 0000 0000 0000 0000 0000 2ef9 b8bb
00000030: 0000 0000 0000 0000 8974 4bbb 0000 0000
00000040: da4e 4ebb d91c 68bb 0000 0000 0000 0000

sequential_3/dense_9/MatMul f4 [20, 1194]
-0.06584099 0.06095646 0.02691631 0.017910404 -0.016352803 0.05664255 -0.03666562 -0.06509964
-0.01225863 -0.06319318 0.026171084 -0.04492218 0.021332756 -0.0279827 0.043463048 -0.029480362
-0.069242015 0.0465678 0.031447615 -0.00027610204 -0.06672417 0.06907195 0.025600439 -0.013887269
-0.07319022 0.016461328 -0.02185158 0.052167404 -0.030579597 0.014286224 0.05991988 0.06148076
0.051925857 0.055720985 -0.06444037 0.06070755 0.026618479 0.061792493 0.03425046 -0.061583087
0.033388615 0.06302481 0.0058071325 -0.030041207 -0.047690324 -0.035911005 0.041286327 -0.01867284
0.060903072 -0.04623383 -0.04694957 -0.03632412 -0.02038505 -0.06823363 -0.015192175 0.00032063795
-0.03661834 0.016757367 -0.04030021 0.035359196 -0.015438116 -0.03504083 -0.04648334 -0.045526497
0.038977407 0.05233789 0.05478972 0.06805414 0.029054627 -0.02929399 -0.0015808865 0.024958953
-0.030954547 -0.037429642 0.04206036 -0.040590364 0.045841735 -0.001410879 0.017034924 0.0113948425
-0.028158119 0.019941643 0.029284015 0.0043745665 0.043182448 -0.008065812 -0.028053552 0.029289465
-0.04052778 0.018670984 -0.0011273352 0.04587269 -0.06286195 -0.049369052 -0.053807307 -0.070496
-0.03871841 0.026571514 -0.018037163 0.03228071 -0.04072498 0.061368376 0.00024500478 -0.036185198
0.02115584 0.051092114 0.009337102 -0.003636884 -0.033763018 0.054584235 -0.0326695 0.038366817
0.021375172 -0.030892838 -0.06966164 -0.029576005 0.027199492 0.057083692 0.04149041 0.040624708
-0.04961891 0.010411433 0.045042835 -0.048592385 -0.055784907 0.054752264 0.0318759 0.012719683
-0.012384068 0.0014474242 0.020604882 -0.060122166 -0.03078943 0.0041673984 0.04768247 0.04148745
0.005076533 -0.047674786 -0.014011947 0.033068515 -0.06861112 -0.012202967 0.009044935 0.051090654
0.038085785 0.06633929 0.037479848 0.009715156 -0.04955061 -0.056814276 -0.0641578 0.0134997675
-0.029253695 -0.003010442 -0.006379325 0.016555019 0.055595804 -0.048031095 -0.03568723 -0.07200437
-0.024530096 -0.05725416 0.012810454 -0.04358575 0.017911635 -1.0834425e-05 -0.012882125 0.05304063
0.047489863 0.015410644 -0.04554342 -0.0041944734 0.025573358 -0.021375632 -0.053729374 0.066865474
-0.03990373 0.043009013 0.062233582 0.02987018 0.008125431 -0.0074335514 -0.046679117 -0.026009494
0.0053927433 -0.037022028 -0.033576984 -0.019200575 0.0385095 0.042185962 0.012571687 -0.06532645
-0.020524519 -0.070666954 0.04322891 0.050639726 0.057350874 -0.0042954185 -0.0074279336 -0.044882465
0.020655008 0.054516736 -0.027137684 -0.049707025 -0.0571991 0.0051185857 0.05239411 0.01942785
0.017551983 -0.0066213775 -0.01762395 -0.038056456 0.042637635 -0.014686505 0.0093758 -0.06358106
-0.053344164 -0.06960933 -0.0014033341 -0.05835408 0.04952469 -0.011771422 -0.013440255 -0.016810369
0.03362656 0.0663965 0.02164696 -0.010681455 -0.044031072 -0.050188243 0.022153366 0.005121841
-0.027869247 -0.05602377 -0.037827488 0.058796834 0.036118116 9.133702e-05 0.01700521 0.012333129
0.03516601 -0.008345853 -0.013942157 0.02103185 -0.039573297 0.065300986 0.03461953 0.02545192
-0.020174557 -0.0046598706 0.023814084 0.027703648 -0.048931226 -0.046198644 0.058176357 -0.030919828
00000000: a4d7 86bd 7bad 793d 987f dc3c d7b8 923c
00000010: 50f6 85bc 0502 683d b02e 16bd f652 85bd
00000020: 6cd8 48bc 6d6b 81bd be64 d63c 5200 38bd
00000030: 08c2 ae3c fa3b e5bc 4f06 323d cd80 f1bc
00000040: c2ce 8dbd e1bd 3e3d 37cf 003d cac1 90b9
00000050: afa6 88bd 9875 8d3d 03b8 d13c 6e87 63bc
00000060: c1e4 95bd e8d9 863c 1602 b3bc 7dad 553d
00000070: 1082 fabc c410 6a3c 8c6e 753d 40d3 7b3d
00000080: 35b0 543d b03b 643d 50f9 83bd 7ba8 783d
00000090: ff0e da3c 201a 7d3d 364a 0c3d 8c3e 7cbd
000000a0: 80c2 083d 2713 813d c249 be3b fa18 f6bc
000000b0: ee56 43bd 6b17 13bd da1b 293d c9f7 98bc
000000c0: 8075 793d af5f 3dbd 314e 40bd 9ac8 14bd
000000d0: 8cfe a6bc 13be 8bbd 9ae8 78bc 4c1b a839
000000e0: 1dfd 15bd bf46 893c d511 25bd ced4 103d
000000f0: 27f0 7cbc f986 0fbd 5165 3ebd fe79 3abd
00000100: c6a6 1f3d 4160 563d 2f6b 603d f85f 8b3d
00000110: f803 ee3c f3f9 efbc c035 cfba b876 cc3c
00000120: 6494 fdbc d34f 19bd 7c47 2c3d 1542 26bd
00000130: 8bc4 3b3d 3eed b8ba d38c 8b3c 6fb1 3a3c
00000140: dbab e6bc a85c a33c 08e5 ef3c 8658 8f3b
00000150: 14e0 303d 7826 04bc 90d0 e5bc 76f0 ef3c
00000160: 7500 26bd e4f3 983c 18c3 93ba 00e5 3b3d
00000170: c4bd 80bd 3437 4abd 0d65 5cbd 3560 90bd
00000180: 3297 1ebd 81ac d93c acc2 93bc c738 043d
00000190: 3dcf 26bd 685d 7b3d fc73 8039 ee36 14bd
000001a0: 034f ad3c f745 513d a5fa 183c ca58 6ebb
000001b0: 174b 0abd b893 5f3d 74d0 05bd 8626 1d3d
000001c0: fc1a af3c fa12 fdbc c3aa 8ebd 6149 f2bc
000001d0: 78d1 de3c 97d0 693d d9f1 293d 1866 263d
000001e0: 333d 4bbd b794 2a3c d67e 383d cf08 47bd
000001f0: b77e 64bd e943 603d 4e90 023d 3866 503c
00000200: 8ce6 4abc 7fb7 bd3a 92cb a83c a942 76bd
00000210: 1d3a fcbc ac8e 883b b24e 433d bfee 293d
00000220: 0c59 a63b a346 43bd 5e92 65bc da72 073d
00000230: fd83 8cbd f4ee 47bc 3531 143c 6f44 513d
00000240: d7ff 1b3d e5dc 873d 7884 193d 512c 1f3c
00000250: 95f5 4abd 16b6 68bd 2a65 83bd 212e 5d3c
00000260: 72a5 efbc d64a 45bb a809 d1bb 649e 873c
00000270: 6db8 633d 41bc 44bd c62c 12bd 0777 93bd
00000280: 57f3 c8bc 5783 6abd f0e2 513c f986 32bd
00000290: 6cbb 923c 80c5 35b7 8c0f 53bc 2241 593d
000002a0: bb84 423d ed7c 7c3c bd8b 3abd cb71 89bb
000002b0: 387f d13c f31b afbc 5513 5cbd c4f0 883d
000002c0: 1872 23bd 382a 303d a4e8 7e3d 4fb2 f43c
000002d0: 8720 053c 2695 f3bb 9a32 3fbd dd11 d5bc
000002e0: 9cb5 b03b 69a4 17bd 0588 09bd 864a 9dbc
000002f0: 23bc 1d3d 30cb 2c3d 7af9 4d3c e0c9 85bd
00000300: 0923 a8bc d6b9 90bd cc10 313d 9a6b 4f3d
00000310: c0e8 6a3d 95c0 8cbb 0666 f3bb add6 37bd
00000320: b134 a93c f14c 5f3d d94f debc 9899 4bbd
00000330: 9a49 6abd cfb9 a73b 359b 563d 2827 9f3c
00000340: 2dc9 8f3c 24f8 d8bb 1a60 90bc 16e1 1bbd
00000350: cda4 2e3d ab9f 70bc f59c 193c c936 82bd
00000360: 697f 5abd 568f 8ebd 14f0 b7ba b004 6fbd
00000370: 67da 4a3d ecdc 40bc 8434 5cbc e6b5 89bc
00000380: 01bc 093d e3fa 873d f754 b13c 4501 2fbc
00000390: ed59 34bd 3092 4dbd fa7a b53c 1ed5 a73b
000003a0: 0c4e e4bc 2e79 65bd fff0 1abd f3d4 703d
000003b0: 97f0 133d 308c bf38 834e 8b3c e410 4a3c
000003c0: 3c0a 103d 0bbd 08bc a56d 64bc fc4a ac3c
000003d0: 9c17 22bd 86bc 853d 35cd 0d3d 8c80 d03c
000003e0: 1d45 a5bc d4b1 98bb c115 c33c c3f2 e23c
000003f0: 1c6c 48bd ca3a 3dbd 554a 6e3d 944b fdbc

sequential_3/dense_10/MatMul f4 [8, 20]
-0.3240552 -0.029070944 0.13534585 -0.15815663 0.35290563 -0.35724464 0.2987843 0.37724602
0.1437782 0.30295455 0.2043668 0.15456711 0.29325545 -0.43168908 0.19358166 -0.115924835
0.43986553 -0.25557306 -0.00024533272 -0.41724342 0.26975283 0.18076122 -0.40152314 -0.19030261
0.37170446 0.23580259 -0.1591647 -0.39777228 0.27570832 -0.3580065 0.33664876 -0.067888156
-0.42779776 -0.23094735 0.36350077 -0.08737463 0.34354553 -0.41714433 -0.3860964 -0.3700095
0.22046769 0.32471097 0.01761645 -0.016405901 0.0230999 -0.05572617 -0.31806207 -0.26388264
-0.37224817 0.20942372 -0.14293316 -0.059347752 0.10519469 0.45159596 -0.022202283 0.42484957
0.24998045 0.34792265 0.43207192 -0.45666453 0.3675247 -0.13695538 0.23175609 -0.084423974
0.07607609 0.35206437 -0.2990702 -0.20729142 0.16303891 -0.054123104 -0.24952288 -0.023381658
0.05651045 -0.34412274 -0.4159099 0.3146484 -0.25605524 -0.041848164 -0.20412236 0.3154214
0.17781508 0.40988916 0.10333902 -0.2844333 -0.16793048 -0.2010386 0.40644938 0.26401275
0.033682257 -0.37075424 0.030172288 -0.251459 0.35539085 0.107225895 -0.07949105 -0.16849953
0.41528565 0.5372332 -0.43065196 -0.29116213 -0.38510862 -0.19509217 0.14628786 0.37860987
-0.068409264 -0.26444387 0.18849868 -0.005099803 -0.3183959 0.31339413 0.30158323 0.07543643
-0.036510944 0.31184232 -0.052721232 -0.05254653 -0.13038349 0.98488206 -0.42001992 0.318214
-0.4072192 -0.076162845 0.42268294 -0.11872935 0.0630728 -0.12765613 -0.13182512 0.014461845
0.08892381 0.038158715 -0.2612362 -0.08348361 -0.43219057 0.07320106 -0.21420498 0.28908294
-0.35777086 1.0378749 -0.04891944 0.20189387 0.2603623 0.051885903 0.27058542 0.43237454
-0.040564924 0.15485162 -0.13238719 0.25225312 -0.16059133 -0.060592026 0.18179238 -0.35012335
-0.0028640032 -0.10616702 0.23635507 -0.020430565 0.10199946 0.38464502 0.30778372 -0.2095685
00000000: 90ea a5be 3026 eebc 1a98 0a3e d0f3 21be
00000010: 0cb0 b43e c5e8 b6be 41fa 983e 6426 c13e
00000020: 983a 133e dc1c 9b3e 8845 513e d746 1e3e
00000030: 9425 963e 5a06 ddbe 453a 463e 006a edbd
00000040: 0e36 e13e 79da 82be 00a0 80b9 eea0 d5be
00000050: 0b1d 8a3e 7819 393e 7194 cdbe b0de 42be
00000060: 0c50 be3e 3c76 713e 12fc 22be cfa8 cbbe
00000070: a429 8d3e a14c b7be 3a5d ac3e f208 8bbd
00000080: 4f08 dbbe 767d 6cbe c61c ba3e 78f1 b2bd
00000090: 33e5 af3e f193 d5be 6dae c5be e371 bdbe
000000a0: 48c2 613e 8440 a63e 6050 903c ab65 86bc
000000b0: 003c bd3c 2041 64bd 08d9 a2be a01b 87be
000000c0: 5097 bebe 2c73 563e 125d 12be a116 73bd
000000d0: 5070 d73d 9637 e73e 90e1 b5bc e285 d93e
000000e0: e0fa 7f3e eb22 b23e 8838 dd3e efcf e9be
000000f0: 332c bc3e 083e 0cbe 7851 6d3e 7ae6 acbd
00000100: c8cd 9b3d c841 b43e bb1f 99be 3444 54be
00000110: acf3 263e 30b0 5dbd ed82 7fbe e48a bfbc
00000120: 8077 673d db30 b0be 24f2 d4be 9819 a13e
00000130: ac19 83be fb68 2bbd 7405 51be ea7e a13e
00000140: 2815 363e fedc d13e 68a3 d33d 3ea1 91be
00000150: f8f5 2bbe 10dd 4dbe 221a d03e ae2c 873e
00000160: 68f6 093d 80d3 bdbe e02b f73c 3cbf 80be
00000170: caf5 b53e 4099 db3d 34cc a2bd 248b 2cbe
00000180: 52a0 d43e 1d88 093f 6a7e dcbe 3413 95be
00000190: f52c c5be 3ec6 47be 7ccc 153e 27d9 c13e
000001a0: 281a 8cbd 3065 87be cc05 413e 401c a7bb
000001b0: ca04 a3be 3275 a03e 1e69 9a3e 6a7e 9a3d
000001c0: 808c 15bd cca9 9f3e 38f2 57bd 083b 57bd
000001d0: 4083 05be 3b21 7c3f da0c d7be f2ec a23e
000001e0: 097f d0be 44fb 9bbd e669 d83e 6028 f3bd
000001f0: 502c 813d 4ab8 02be 2afd 06be 60f1 6c3c
00000200: b01d b63d 504c 1c3d c0c0 85be 74f9 aabd
00000210: 1548 ddbe 70ea 953d 8d58 5bbe ae02 943e
00000220: be2d b7be 16d9 843f c05f 48bd 44bd 4e3e
00000230: 354e 853e 5086 543d 2c8a 8a3e 3260 dd3e
00000240: 6827 26bd 6c91 1e3e 8290 07be 5227 813e
00000250: 0e72 24be 582f 78bd c827 3a3e 5e43 b3be
00000260: 00b2 3bbb 186e d9bd 1007 723e 005e a7bc
00000270: 18e5 d03d 31f0 c43e d495 9d3e 2099 56be

sequential_3/dense_11/MatMul f4 [4, 8]
-0.39690933 -0.54795504 -0.6309241 -0.04481309 -0.30479044 0.6143367 0.6744576 -1.015329
-0.32516292 -0.19125277 -0.4631018 1.3613973 -0.61008674 -1.2833754 -1.5292885 -0.6110336
-0.6328641 0.1746982 1.2214262 -2.1086624 0.9489839 -0.4766905 -0.05561479 1.0596962
0.4269943 0.04286421 1.967694 -1.4801751 0.8960281 0.24599779 0.17068136 1.7208284
00000000: b337 cbbe c846 0cbf 3e84 21bf ee8d 37bd
00000010: 7e0d 9cbe 2c45 1d3f 41a9 2c3f 4df6 81bf
00000020: c17b a6be c4d7 43be ae1b edbe 4442 ae3f
00000030: a52e 1cbf a545 a4bf babf c3bf b36c 1cbf
00000040: 6203 22bf 16e4 323e b257 9c3f 53f4 06c0
00000050: 9cf0 723f c710 f4be 56cc 63bd 20a4 873f
00000060: ff9e da3e 6292 2f3d 66dd fb3f 6176 bdbf
00000070: 1962 653f d8e6 7b3e 18c7 2e3e 1b44 dc3f

sequential_3/dense_12/MatMul f4 [4, 4]
-0.91084903 0.5851235 1.2892989 0.23708747 0.80130047 -2.2391534 -1.5820609 -2.2089934
-2.552053 1.4806056 -0.96576726 -3.0024595 0.4007437 -0.33057112 -2.2849102 0.21258707
00000000: 672d 69bf a7ca 153f bf07 a53f 0fc7 723e
00000010: 0722 4d3f 4a4e 0fc0 f980 cabf 2660 0dc0
00000020: d654 23c0 7c84 bd3f 863c 77bf 4c28 40c0
00000030: 472e cd3e 9e40 a9be f83b 12c0 6db0 593e
